task1b/pretrained_models/mobnet-model-0.9517-quantized.tflite (tflite, 252256 bytes, 122 tensors)

model_1/activation_3/Relu;model_1/batch_normalization_3/FusedBatchNormV3;model_1/depthwise_conv2d_1/depthwise;model_1/depthwise_conv2d_1/BiasAdd;model_1/depthwise_conv2d_13/depthwise;model_1/depthwise_conv2d_1/BiasAdd/ReadVariableOp f4 [64]
000000 a5 b5 30 bf 0a 8e dc 3e a5 0c 05 bf c2 c5 9f bd
       -0.6902717 0.43077117 -0.5197242 -0.07801391
000010 0d 5f b6 be e8 89 24 bf cb 99 e3 3f cf 0d 21 bf
       -0.35619393 -0.6427293 1.7781309 -0.62911695
000020 ad 5e 94 3f 61 da a6 3f c4 66 99 3f ee e3 e9 be
       1.1591393 1.3035394 1.1984487 -0.4568171
000030 d6 0e 9b be f1 84 a8 be bb d8 0e 40 37 77 e3 3f
       -0.30284756 -0.32913926 2.2319782 1.7770756
000040 c1 d5 5a 3f 5b b2 fe 3d 15 94 2e bf e8 4b 9f be
       0.8548241 0.12436362 -0.68194705 -0.311126
000050 78 3c 38 bc 90 ef a3 3d 89 45 e2 3f de ee bf 3f
       -0.011244886 0.08004677 1.767747 1.4994771
000060 44 fb fe 3e b8 e5 59 bf 1b 08 a4 3f e5 be 4a 3d
       0.49801075 -0.8511615 1.2814974 0.049498457
000070 47 36 ad be aa 10 a3 3f 98 b6 88 3f 07 74 9b 3f
       -0.33830473 1.273946 1.0680723 1.2144784
000080 1c c4 6e be 3b 14 a5 3e 80 47 0e 3f b7 b1 f2 c0
       -0.23316997 0.32241997 0.5557785 -7.5841937
000090 b4 60 bf bc 6f 0a 5f be aa 5e e6 3f 31 c4 01 3e
       -0.023361541 -0.21781324 1.7997639 0.12672497
0000a0 32 05 e2 3f e0 7f 31 bf ac 60 a3 3f 03 23 8a be
       1.7657835 -0.69335747 1.2763877 -0.26979837
0000b0 70 f0 db be b5 1f 13 3f 04 71 92 3f f8 c5 9b 3e
       -0.42956877 0.57470256 1.144074 0.30424476
0000c0 ad 50 8d bd 79 61 27 be a7 7d 0d 40 d6 79 62 3f
       -0.06900153 -0.16345777 2.2107942 0.88467157
0000d0 e8 fb 53 3f 15 e5 87 bf a6 d5 0d 3f 9a 69 27 3d
       0.82806253 -1.0616785 0.55404127 0.040872194
0000e0 42 0c 6f 3f 32 f8 3d bf e0 06 86 3f 5c f3 a8 be
       0.9337808 -0.7420684 1.0470848 -0.32998168
0000f0 f7 0a 9b 3f a5 6c 16 be 5e 26 2e 40 ee dd 29 3f
       1.2112721 -0.14689882 2.7210917 0.6635426

model_1/activation_5/Relu;model_1/batch_normalization_6/FusedBatchNormV3;model_1/depthwise_conv2d_2/depthwise;model_1/depthwise_conv2d_2/BiasAdd;model_1/depthwise_conv2d_13/depthwise;model_1/depthwise_conv2d_2/BiasAdd/ReadVariableOp f4 [64]
000000 47 29 95 3f 8d 6e 18 bf 11 3d 9c bf ef 8c 74 3f
       1.1653222 -0.5954369 -1.2206136 0.9552755
000010 a8 1c eb 3e 68 b5 1c 3f c0 51 93 be 4d e8 87 3f
       0.459203 0.61214304 -0.28773308 1.0617768
000020 45 3c 20 be b2 ec ef be 94 a7 94 bf 2a 58 54 3f
       -0.15647991 -0.46860272 -1.1613641 0.8294703
000030 de 4d 8d be c4 29 8a bf 7a f4 0c bd 65 8c 76 3f
       -0.2759847 -1.0793996 -0.03441284 0.96307975
000040 c0 ed 51 bf d0 59 d8 3b d0 d8 de bd 2b c5 1c bf
       -0.820034 0.0066025034 -0.108811975 -0.61238354
000050 99 93 54 bf 68 ba 1f be ba a0 87 bf 2f 70 8b 3f
       -0.83037716 -0.15598452 -1.0595925 1.0893611
000060 2b 7a 96 bf e2 6d 4e 3f aa 99 b6 be fc 3a ff be
       -1.1756033 0.8063642 -0.3566411 -0.4984969
000070 cf aa 64 3e 24 24 27 be 79 47 68 3f 25 c8 c3 3f
       0.22330783 -0.1632238 0.9073406 1.5295454
000080 5a 0c 90 be 54 81 a6 3f af 58 6d 3f 62 e0 cc be
       -0.28134423 1.3008218 0.92713445 -0.4001494
000090 ef b5 51 be 9f 3e 40 3e 60 a0 51 bf 84 b9 95 be
       -0.20479558 0.18773888 -0.8188534 -0.292431
0000a0 88 10 07 be 92 4e 8c bf e3 a2 43 3f 80 4e 4d 3e
       -0.131899 -1.0961478 0.7642042 0.20049477
0000b0 74 66 65 bf b1 bf 03 3f f2 63 57 bd c2 c6 91 bf
       -0.89609456 0.5146437 -0.05258555 -1.1388781
0000c0 a4 d9 01 be 4c 70 4a 3d 01 00 55 3f e9 0e 5f 3f
       -0.1268068 0.0494235 0.8320313 0.87132126
0000d0 10 25 f8 bd ed 0d 75 3f c5 0c 61 bf 45 fb e4 be
       -0.12116444 0.95724374 -0.8791011 -0.44722953
0000e0 a6 e4 9d bf 0e c9 c3 be 57 e9 b0 be ba eb 8f 3f
       -1.2335403 -0.3823933 -0.34553024 1.1243813
0000f0 e8 10 7e 3f 27 e1 1e bf 39 09 c5 bd 06 4f 28 be
       0.99244547 -0.62062305 -0.096209 -0.16436395

model_1/activation_7/Relu;model_1/batch_normalization_9/FusedBatchNormV3;model_1/depthwise_conv2d_3/depthwise;model_1/depthwise_conv2d_3/BiasAdd;model_1/depthwise_conv2d_13/depthwise;model_1/depthwise_conv2d_3/BiasAdd/ReadVariableOp f4 [64]
000000 38 87 13 bf 03 8b d1 bd 12 b8 8d 3f 1a 3e 84 bf
       -0.576282 -0.102315925 1.1071799 -1.0331452
000010 91 c5 5c bf 07 34 57 bf 6c f7 17 bf 70 50 c0 3e
       -0.8623896 -0.8406376 -0.5936191 0.3756137
000020 4f cb e2 3e 89 5b ec 3a c2 78 9c 3f c2 48 e7 3d
       0.44295737 0.0018032651 1.2224352 0.11293174
000030 75 d5 98 3f af b0 9b 3e 7e b7 c4 3f db a4 5b bf
       1.1940142 0.30408236 1.5368497 -0.85798424
000040 93 4e 2f bf b8 6f 97 be 4c 4c d4 be d6 a9 19 be
       -0.6847927 -0.29577422 -0.4146446 -0.15006194
000050 1d 28 ee be ef 9d b8 be 27 48 81 3f ef e9 15 bf
       -0.4651498 -0.36057994 1.0100144 -0.5856008
000060 bc 1e 22 3f 98 6d 60 3f 90 cc 96 be df d8 91 bf
       0.63328147 0.87667227 -0.29452944 -1.1394309
000070 e1 06 91 3d dd 90 9d be 0a aa 6a bc d1 53 10 bf
       0.0708139 -0.30774584 -0.014322767 -0.56377894
000080 74 3a e4 bd db b3 33 bf 66 8d aa bd 17 64 70 bf
       -0.111439615 -0.7019631 -0.08327751 -0.93902725
000090 de a5 97 3f 03 d4 04 3c 20 f1 8e bf 88 24 57 bf
       1.1847494 0.008107188 -1.1167336 -0.8404012
0000a0 bf 13 60 bf 19 9c da 3e 8a 63 5c be a3 05 79 bf
       -0.8753013 0.42697218 -0.21522346 -0.97274226
0000b0 29 04 cb 3f b8 ad 19 3f 2a e7 b0 3f 6d 72 88 3f
       1.5860645 0.600307 1.3820546 1.065992
0000c0 cb 68 56 be 38 33 01 3e 99 ab 35 bf d3 1c 79 bf
       -0.20938413 0.12617195 -0.7096496 -0.9730961
0000d0 cf 8c 80 be 1c a3 a2 be 95 73 81 3f 38 5d 14 3f
       -0.25107428 -0.31765068 1.0113398 0.5795474
0000e0 ea c9 33 bf 50 e2 9a 3f 75 00 52 bf 89 e0 d8 3e
       -0.7022997 1.2100315 -0.8203195 0.42358807
0000f0 09 3e 01 be d2 d9 35 bf bc c9 08 bc 56 6c 80 3e
       -0.12621321 -0.7103549 -0.0083488785 0.25082654

model_1/activation_9/Relu;model_1/batch_normalization_12/FusedBatchNormV3;model_1/depthwise_conv2d_4/depthwise;model_1/depthwise_conv2d_4/BiasAdd;model_1/depthwise_conv2d_13/depthwise;model_1/depthwise_conv2d_4/BiasAdd/ReadVariableOp f4 [64]
000000 d1 d6 c9 be b3 d6 34 bf 97 6b 1a bf 84 b8 2f bf
       -0.39421704 -0.70640105 -0.6032042 -0.68640924
000010 94 db de 3f ec 91 4a be 23 7a d0 3f 7f 28 2f 3f
       1.741076 -0.19782227 1.6287273 0.6842117
000020 df 6a 1f be 0d d1 e1 3f 17 12 fb bd 43 58 13 bf
       -0.15568112 1.7641922 -0.1225931 -0.5755655
000030 9d e2 12 40 3f a1 d9 be b7 de 93 3f 35 35 4c bf
       2.2950814 -0.42505834 1.1552342 -0.7976869
000040 8d 60 c4 be 43 f0 ee 3f 7d d8 b1 be aa 42 cb 3d
       -0.38354912 1.8667072 -0.3473548 0.099248245
000050 7d e0 04 bf 35 89 9b be 5e 0b fc be cc bc b1 be
       -0.5190504 -0.30378118 -0.49227422 -0.34714353
000060 c8 05 46 be 53 0d fd 3f 1f 90 ae bd 0f 9e 84 bf
       -0.19338143 1.9769691 -0.08523583 -1.0360736
000070 d1 bb fc 3f be 30 2c bf 72 5c 09 3f 9d 24 a0 be
       1.9744817 -0.67261875 0.53656685 -0.31277934
000080 a3 f4 df be 26 91 23 bf 35 5b 2d bf be ed e4 3f
       -0.4374133 -0.63893354 -0.67717296 1.7885053
000090 0f da a5 3f 21 e2 1b bf da e8 0e bf 5c 5a d3 3f
       1.2957171 -0.6089192 -0.55824053 1.651195
0000a0 6e 7b 6d 3e 4b c6 4b bd ac 2d 66 bf 5c d8 a8 3f
       0.23191616 -0.049749654 -0.8991344 1.3191028
0000b0 e8 38 f1 3d 15 a9 cc 3f ba 13 53 bf e5 be 92 be
       0.11778432 1.59891 -0.82451975 -0.28661266
0000c0 88 57 f0 3f a1 39 43 3f a9 b3 2f bf 86 48 e7 bd
       1.8776712 0.7625981 -0.68633515 -0.112931296
0000d0 35 22 f6 be dc ec 11 bf 42 c7 eb 3e 86 78 06 3d
       -0.48072973 -0.57002044 0.4605046 0.032829784
0000e0 e0 24 25 bf 0f e0 a7 bf c4 83 99 3d 57 21 63 bf
       -0.6450939 -1.3115252 0.074958354 -0.8872275
0000f0 8e 98 ce 3f ea 89 b0 be f7 f5 c6 be a2 63 a5 3f
       1.6140306 -0.3448022 -0.3885953 1.292103

model_1/activation_11/Relu;model_1/batch_normalization_15/FusedBatchNormV3;model_1/depthwise_conv2d_5/depthwise;model_1/depthwise_conv2d_5/BiasAdd;model_1/depthwise_conv2d_16/depthwise;model_1/depthwise_conv2d_5/BiasAdd/ReadVariableOp f4 [80]
000000 8d 13 a3 3f 27 a2 d3 3f 07 53 33 3f ca 6a ae bc
       1.2740341 1.653386 0.70048565 -0.021291155
000010 fc 51 e6 3d 58 f4 ad 3f 7e 2a 95 3e d5 7d ac 3f
       0.11246106 1.3590193 0.2913398 1.3475901
000020 67 05 3e 3f 81 16 5c be 32 35 5d bf 24 ed 1d 3f
       0.74226993 -0.2149296 -0.86409295 0.6168997
000030 5c 35 9f be 8b 30 39 bd f5 0f ea bd f9 71 e0 3f
       -0.31095397 -0.04521231 -0.11428825 1.7534782
000040 a1 08 16 3f b8 5a eb 3f 14 ad 45 3e 43 19 24 3e
       0.58606917 1.838706 0.19304305 0.16025262
000050 24 79 d8 be 7e bf 01 bf 25 ae 6e 3e 63 c6 90 be
       -0.42279923 -0.5068282 0.23308618 -0.28276357
000060 8f fd 56 3e 43 8a 1b bf da ed d3 3e e8 70 b6 3f
       0.20995162 -0.60757846 0.41392404 1.4253206
000070 4d ad 93 3f 51 c9 9d 3f 5e f5 d1 be 1d 86 a2 3f
       1.1537262 1.2327062 -0.41007513 1.2697178
000080 98 e1 4f bf c8 6e 9d 3f 43 cb b5 3e 18 dc 92 3f
       -0.81203604 1.2299433 0.3550664 1.1473417
000090 d3 41 b9 bf cf 53 84 3f 35 15 05 be d6 4b 37 be
       -1.4473213 1.0338076 -0.12996371 -0.17900023
0000a0 b4 80 94 3f 06 b0 a6 3f 06 2e 43 be c4 84 c1 3f
       1.1601777 1.3022468 -0.19060525 1.5118642
0000b0 da 98 2e bd 6b e8 0f bf ef ac c3 be 65 a2 03 bf
       -0.04262624 -0.56214017 -0.38217875 -0.5141967
0000c0 93 5b 75 3f 25 66 96 3f 44 1c a3 3d 86 cd e9 3e
       0.95842856 1.1749922 0.079643756 0.45664614
0000d0 db 9a 90 3f 09 18 f1 3f b8 07 8f 3f 88 61 07 bf
       1.1297258 1.883546 1.117423 -0.52883196
0000e0 30 da 75 3f 46 80 8e be 63 81 a0 be d8 dc 45 bf
       0.9603605 -0.2783224 -0.31348714 -0.77290106
0000f0 67 c8 9c 3f c5 c6 2b be 00 a4 49 3f 97 94 2d bf
       1.2248658 -0.16775043 0.7876587 -0.67804855
000100 61 d5 92 3f 34 9a 53 3f be bf 46 bf c4 f9 e0 bc
       1.1471368 0.8265717 -0.77636325 -0.027462848
000110 2d d5 73 3e ee ca aa bd 5e 23 c6 3e ee 3d 90 3f
       0.23811789 -0.08339487 0.38698858 1.12689
000120 36 d5 63 be 84 3e 1e be bc eb 08 bf 25 94 59 3f
       -0.22249302 -0.15453535 -0.534847 0.84991676
000130 78 46 fd 3d fc 3a 17 3f ce 42 be be 6d 08 10 bf
       0.123669565 0.5907438 -0.37160343 -0.56262857

model_1/activation_13/Relu;model_1/batch_normalization_18/FusedBatchNormV3;model_1/depthwise_conv2d_6/depthwise;model_1/depthwise_conv2d_6/BiasAdd;model_1/depthwise_conv2d_16/depthwise;model_1/depthwise_conv2d_6/BiasAdd/ReadVariableOp f4 [80]
000000 a1 7a 26 bf 7b 74 44 be 79 d3 25 bf 93 66 85 be
       -0.65030867 -0.19185059 -0.64775807 -0.2605482
000010 d6 68 81 bf 53 19 71 bd 16 10 9d bd 17 18 00 bf
       -1.0110118 -0.05886204 -0.07669084 -0.5003676
000020 cb 9e 32 3e d9 24 b1 3f ac 2c 9c be 3d 90 92 bf
       0.17443387 1.383937 -0.30502832 -1.1450268
000030 61 67 80 3f 4a 2b d9 3f f4 ff 88 3f f8 b2 86 be
       1.0031549 1.6966336 1.0703111 -0.26308417
000040 6b de 50 3f 20 7f 2f be 7c 75 0d bf 63 8a 1f bf
       0.8158938 -0.17138338 -0.5525739 -0.62320536
000050 7a fd 1d 3f a6 a9 b8 3f 44 af 9c bf d7 3a 18 bf
       0.617149 1.4426773 -1.2240987 -0.5946478
000060 c3 84 c2 3f f9 2f 75 3c 9c c9 19 be 83 73 30 bf
       1.5196766 0.014965051 -0.15018314 -0.68926257
000070 e1 41 ec be 13 e7 1f bf 5e 40 23 bf b3 69 16 bd
       -0.46144012 -0.62461966 -0.6377009 -0.036721896
000080 30 41 69 bd 5d ba ac 3f c1 03 70 bf 16 e3 aa 3e
       -0.056946933 1.3494374 -0.9375573 0.33376378
000090 57 e1 09 be bb 11 60 bf 0e 72 57 3f b9 d4 29 3f
       -0.13464867 -0.87527055 0.8415841 0.66340214
0000a0 be 44 56 bf 15 6f bc 3d d8 ee af 3f 29 5e 92 bf
       -0.8369864 0.09200875 1.3744764 -1.1434985
0000b0 3b 36 a7 bd 0a 05 8a bd 21 a5 0b be 89 10 02 bf
       -0.081646405 -0.067392424 -0.1363721 -0.5080648
0000c0 5d 8b 49 3f 46 33 29 3e a0 c6 bf be 38 c2 1b bf
       0.78728276 0.16523466 -0.37456226 -0.6084323
0000d0 69 59 75 3f c9 0b 92 3e 50 67 ce be 4d b4 a5 3c
       0.95839554 0.28524616 -0.40313196 0.020227576
0000e0 24 0b 13 3e e2 42 24 be 90 87 a7 bd c4 b8 76 3d
       0.14359719 -0.16041139 -0.08180153 0.0602348
0000f0 51 00 86 3d 93 66 78 3d 66 3f a8 be 6c fa ab 3e
       0.06543029 0.060644697 -0.3286087 0.33589494
000100 5f b6 b5 bf cc eb a4 3f 20 31 57 3d 9f 7a 20 be
       -1.419628 1.288446 0.052537084 -0.15671776
000110 0c f4 79 3f a9 99 70 bd 19 c9 16 bf d2 80 4e bf
       0.9763801 -0.05874029 -0.589006 -0.80665314
000120 6c 2b 73 3f 54 9c 82 3e c6 1a c7 bd 48 17 a4 3f
       0.9498813 0.25509894 -0.097219035 1.2819605
000130 01 bf 9f bc 9f 8f 5c 3f a3 27 2d bf e3 80 62 bf
       -0.019500257 0.8615665 -0.67638606 -0.88477916

model_1/activation_15/Relu;model_1/batch_normalization_21/FusedBatchNormV3;model_1/depthwise_conv2d_7/depthwise;model_1/depthwise_conv2d_7/BiasAdd;model_1/depthwise_conv2d_16/depthwise;model_1/depthwise_conv2d_7/BiasAdd/ReadVariableOp f4 [80]
000000 01 db cb 3e f2 3a c2 3f 39 db 01 bf 3e 01 2e bf
       0.39815524 1.5174239 -0.5072513 -0.67970645
000010 75 0b 46 3f 6d bd 95 bf 32 7c 8c be 5f 2d 1d bf
       0.7736123 -1.1698433 -0.27438504 -0.61397356
000020 8f 8e 82 be 45 9c 2f bf 7e 0b d1 3f 1e 4e a2 3e
       -0.2549939 -0.68597823 1.6331632 0.31700224
000030 dc ed 05 3e 5f fb 16 bf f4 22 ba 3f e1 ad a8 3f
       0.13079017 -0.5897731 1.4541917 1.3178064
000040 07 16 77 3d 18 9e b0 3f bf 10 d8 3f a8 5c e1 3d
       0.06032374 1.3798246 1.688011 0.11004001
000050 f3 3d 02 bf 78 6a d0 3d 42 fb 70 bf 80 d9 6d bf
       -0.50875777 0.10176557 -0.9413339 -0.92910004
000060 1e 11 b0 be a2 d1 8b be d2 8f a1 3f 4b f5 2a 3f
       -0.3438806 -0.27308375 1.2622015 0.6678054
000070 ec 31 e8 3f 74 27 ab 3f 5b ce 3c 3f ef 04 66 3f
       1.8140235 1.3371415 0.73752373 0.8985128
000080 71 1f a2 3c f7 3a 42 3d fa fd 8d 3c 3b d9 f4 be
       0.019790383 0.047419515 0.01733302 -0.47821984
000090 99 21 71 bf 05 ed be 3f b7 e6 13 bf b4 a7 71 bf
       -0.9419189 1.4916083 -0.5777392 -0.9439652
0000a0 2d d9 00 bf 66 6a 0d bf 02 0e d6 be a9 7c ab 3f
       -0.50331384 -0.55240476 -0.41807562 1.3397418
0000b0 9a c6 df be 68 2c 19 3f b0 09 38 3f f8 05 11 be
       -0.43706208 0.59833384 0.7188978 -0.14162433
0000c0 f9 6c 88 3f cf 0d 36 bf 30 20 5e bf 4d 96 ef 3f
       1.0658256 -0.7111482 -0.86767864 1.8717743
0000d0 90 8d 29 bf 33 03 d0 3e c0 90 26 bf ee 48 11 bd
       -0.6623163 0.4062744 -0.6506462 -0.03546994
0000e0 f0 af 96 3d e8 12 f8 3d c0 91 d4 3f 6b d9 53 be
       0.07357776 0.12112981 1.6606979 -0.20688407
0000f0 97 a2 db be 84 4a 3d bf ec 70 18 3e 8c bd a8 3f
       -0.42897484 -0.73941827 0.14886826 1.3182845
000100 ed 04 53 be 15 53 75 3f 87 5d c0 3e e8 a7 c1 3f
       -0.20607348 0.958299 0.37571356 1.5129366
000110 4c 48 d4 3e 84 50 b8 3f 1f 80 5d 3f 5a 75 ce 3d
       0.41461408 1.4399571 0.8652362 0.10080977
000120 53 a0 62 be 64 13 db 3e d1 c4 43 be 7d f1 97 be
       -0.22131471 0.4278823 -0.19118048 -0.29676428
000130 9a df ce be 97 ad 3d bf cb 84 0b 3e ce 3d ac bf
       -0.4040497 -0.74093 0.13624875 -1.3456361

model_1/activation_17/Relu;model_1/batch_normalization_24/FusedBatchNormV3;model_1/depthwise_conv2d_8/depthwise;model_1/depthwise_conv2d_8/BiasAdd;model_1/depthwise_conv2d_18/depthwise;model_1/depthwise_conv2d_8/BiasAdd/ReadVariableOp f4 [96]
000000 35 a8 3a 3f e5 34 92 3f c1 3f 29 3f 2d 4c 26 bf
       0.72912914 1.1422392 0.66112906 -0.64959985
000010 da 0e 86 3f 19 36 85 3e c8 85 65 3f 1a cf c6 be
       1.0473282 0.26017836 0.8965726 -0.3882988
000020 7c f4 40 3b ea cb d3 3f 0d 50 b8 be 3e 93 73 3f
       0.00294426 1.6546605 -0.35998574 0.9514655
000030 77 88 1c 3f 7d d9 4d bb 90 b9 c9 3f 70 33 7d 3d
       0.6114573 -0.003141015 1.5759754 0.061816633
000040 a8 dc 3b 3e fa 37 ce be fe c6 92 bf 34 93 7c 3e
       0.18345892 -0.40277082 -1.1466978 0.24665529
000050 a4 f2 3c bf 06 50 5a 3e b5 c2 86 3f 81 bd 4c 3f
       -0.7380774 0.21319589 1.052817 0.7997666
000060 76 25 93 bf e4 f7 c2 bf a7 58 80 3e bd 8e e2 3d
       -1.1495807 -1.52319 0.25067636 0.110623814
000070 37 eb c2 be d1 4f 4f be 88 4a 64 bf 1e 05 c7 be
       -0.3807008 -0.20245291 -0.89176226 -0.38871092
000080 fe 58 da 3f 6a 0e 4e 3e d6 d0 d5 be 8c ee 1e 3e
       1.7058408 0.20122686 -0.41760892 0.15520686
000090 f6 7a 12 bf 85 de c6 bd 32 81 04 40 92 ee a3 3f
       -0.57218874 -0.09710411 2.0703855 1.2807181
0000a0 a6 d1 d8 3e c8 7b dc be 9f b3 a0 3f 2f a2 8e 3e
       0.4234745 -0.43063188 1.2554816 0.2785811
0000b0 b9 65 8c 3f d4 a2 9e 3e 05 fa 07 3f 06 5d 05 be
       1.0968543 0.30983603 0.53115875 -0.13023767
0000c0 7d be 90 bd 06 a0 a1 3e 4f d5 47 3e 7e f5 b6 bd
       -0.07067583 0.315674 0.19514965 -0.08933543
0000d0 1a 24 89 bf a0 a7 28 3f c7 ca 79 bf 44 03 66 3f
       -1.0714142 0.65880775 -0.9757504 0.8984873
0000e0 73 72 ef be b0 a9 dc bd 15 80 af bc be 64 9b be
       -0.46767005 -0.10774553 -0.021423379 -0.30350298
0000f0 a8 b7 52 3f 51 5b ba 3f 6a 2b 4d 3f 1e 53 08 3e
       0.8231149 1.4559118 0.8014437 0.13312957
000100 6c ab e1 bc b1 43 bf 3f ff de ee be 7f 82 92 3f
       -0.02754756 1.4942533 -0.46654508 1.1446074
000110 68 43 46 3f 75 0c 6e bf 12 d7 03 40 a6 07 b5 3f
       0.77446604 -0.9298776 2.0600019 1.4142959
000120 83 5e 22 3f f7 b1 76 bf ee 54 8a 3f 13 82 ff bd
       0.63425463 -0.963653 1.0807168 -0.124759816
000130 64 a7 39 3e 05 6e 1e 3d 13 c7 0b 3f 58 82 6a bf
       0.1813026 0.03867914 0.5460064 -0.9160514
000140 48 fa 8e 3f fa 34 2b bf c4 58 a1 be a1 af a1 be
       1.117013 -0.6687771 -0.31513035 -0.31579307
000150 80 86 5d be 02 98 bf be 82 3a 9f 3f 32 06 ab 3f
       -0.21633339 -0.3742066 1.243973 1.3361266
000160 f1 5e 9f 3f db 11 48 bf b7 bb 99 3e df 22 2a 3f
       1.2450849 -0.78152245 0.30026028 0.6645946
000170 68 ee 99 3d ea 0a 56 be 0c eb 17 be e4 38 64 3f
       0.075161755 -0.20902601 -0.14835757 0.8914931

model_1/activation_19/Relu;model_1/batch_normalization_27/FusedBatchNormV3;model_1/depthwise_conv2d_9/depthwise;model_1/depthwise_conv2d_9/BiasAdd;model_1/depthwise_conv2d_18/depthwise;model_1/depthwise_conv2d_9/BiasAdd/ReadVariableOp f4 [96]
000000 fb 74 8d 3f ed 24 12 be 44 27 2e 3f e2 21 85 be
       1.1051325 -0.14271899 0.68028665 -0.26002413
000010 57 e7 d1 3e 02 69 6d 3f 29 7c df be 95 32 36 3b
       0.4099681 0.92738354 -0.43649414 0.0027801145
000020 00 fa 32 3f 44 67 7d 3f 79 c9 a1 be 10 41 60 3f
       0.6991272 0.98985696 -0.31599024 0.8759928
000030 e2 7c d9 be 1a 79 5e be 54 5f 59 bd cd f1 15 3f
       -0.4247809 -0.21725884 -0.053069428 0.58572084
000040 08 b5 7f 3d a3 0b a8 3e 53 ca 72 3f 83 a7 8a bf
       0.062428504 0.32821378 0.9483997 -1.083237
000050 bd bf d4 be c3 b1 81 3f 27 11 56 be ac 87 1f be
       -0.41552535 1.0132374 -0.2090498 -0.15579098
000060 f8 91 9b 3e 78 77 64 3f c3 12 a6 3e 0b 49 2d 3f
       0.30384803 0.89244795 0.3243619 0.6768958
000070 53 14 f3 be 65 0b 10 3d 3f 5e ce bc b1 12 13 3f
       -0.47476444 0.035167117 -0.025191424 0.57450396
000080 14 1a 0a 3f 90 a0 36 3f 21 7b 04 3f 0c d8 bb be
       0.5394604 0.7133875 0.5175038 -0.36688268
000090 65 8e 5c 3e 7c 2f 31 3d 32 ea 24 3f 85 b6 a8 3e
       0.21538694 0.043258175 0.64419854 0.3295175
0000a0 f4 d9 1b 3e d8 d8 b0 be 22 12 77 bf ab 3f 0d 3f
       0.15219861 -0.3454044 -0.96512043 0.55175275
0000b0 1f 47 01 bf a9 75 56 3f f5 6e a3 3e 23 37 2d 3f
       -0.5049915 0.83773285 0.3192059 0.67662257
0000c0 d0 01 0a 3e df 34 5b 3f 5b fa cb 3e e4 85 65 3f
       0.13477254 0.8562755 0.39839444 0.89657426
0000d0 04 06 22 3f 91 8d f4 3e cf 02 3e 3d 3d 11 89 3d
       0.6329043 0.47764257 0.046389397 0.06692741
0000e0 f7 7c 1d 3f 45 0f f7 3e 24 c8 53 3f 75 4e 1f 3f
       0.61518806 0.48253837 0.82727265 0.6222909
0000f0 17 c6 42 bf 59 5f 96 be 39 36 89 be 59 97 5a bf
       -0.7608351 -0.2936962 -0.2679918 -0.8538719
000100 9c ea 56 3f 2f 68 55 3f f7 a2 09 3f e6 bd a4 be
       0.83951735 0.83362097 0.5376429 -0.3217613
000110 48 8d 65 bf f7 2d 66 3e 9c f0 4a 3f 55 00 0d 3e
       -0.89668703 0.22478472 0.7927339 0.13769658
000120 4d 1b 0f 3f 8c af 7f be bf 8b 74 3f 9b da 4a 3f
       0.5590103 -0.2496931 0.95525736 0.79239815
000130 60 87 18 3e 58 a8 6f be b6 0b 4e 3f b3 80 6f 3f
       0.14895391 -0.23404062 0.8048662 0.93555754
000140 c6 c1 6e 3f e3 8d 63 3f 68 2f 62 3f 6e 23 0b 3f
       0.93264425 0.88888377 0.88353586 0.54350936
000150 32 3e 3a bf a3 60 49 3f c6 d2 3e bf 26 1e 2f 3f
       -0.7275115 0.7866308 -0.74540365 0.6840538
000160 22 95 1b 3f 6c 94 26 3f 7f ff 65 bf 8f 72 d0 3e
       0.60774434 0.65070224 -0.8984298 0.407124
000170 5c e2 11 3f 80 12 16 3f 7e 38 b7 be 86 e2 39 be
       0.5698602 0.5862198 -0.35785288 -0.18152818

model_1/activation_23/Relu;model_1/batch_normalization_32/FusedBatchNormV3;model_1/depthwise_conv2d_10/depthwise;model_1/depthwise_conv2d_10/BiasAdd;model_1/depthwise_conv2d_13/depthwise;model_1/depthwise_conv2d_10/BiasAdd/ReadVariableOp f4 [64]
000000 04 f5 78 3f 88 3d a6 3f a5 f3 c7 bc ef 3f 80 3e
       0.97248864 1.2987528 -0.024408171 0.25048777
000010 75 73 b0 bc be bb 02 bf eb 23 cc be b8 7a 07 3e
       -0.02153943 -0.5106772 -0.39871153 0.13230407
000020 d2 74 19 bf ec a6 0c bf 54 ad 35 be 3d 1e 4f be
       -0.5994388 -0.549422 -0.177419 -0.20226379
000030 bc 64 86 3e 48 55 3e 3e bf 62 aa be 5f e0 c8 3f
       0.2624873 0.1858722 -0.33278462 1.5693473
000040 f1 d7 05 bf b0 4d a6 3f 6d 59 8f 3f b6 3e 9e be
       -0.52282625 1.2992458 1.1199166 -0.3090722
000050 95 76 b2 be 21 9f 09 3f 71 10 63 3f 0d ae 5d 3f
       -0.34856096 0.53758436 0.8869696 0.86593705
000060 e7 67 84 3f 9b 39 86 bf b6 11 70 3f 93 8e ff bd
       1.0344208 -1.048633 0.93777025 -0.12478366
000070 2a 10 53 3f c4 fa 54 3f 00 79 58 3f 37 7e 07 3e
       0.8244654 0.8319514 0.8455963 0.13231741
000080 24 f2 06 3f 33 57 c8 be 85 3c a2 3e 10 ab a5 3d
       0.5271323 -0.39129028 0.31686798 0.08089268
000090 b8 70 4b 3f 1b fe 9c 3f ff c0 09 bf 1c 1e 26 bf
       0.7946887 1.2265047 -0.53810114 -0.64889693
0000a0 7c 04 99 3e 28 48 6e 3f 06 0f 5c be 97 08 22 bf
       0.29886234 0.9307885 -0.21490106 -0.6329436
0000b0 ec 45 21 bf 04 69 73 3f 39 e3 d8 3d ad b3 15 3f
       -0.6299732 0.95082116 0.10590214 0.5847729
0000c0 eb 5b 04 be 7e 94 6d 3f 1c 63 23 bf b9 f6 3a be
       -0.12925689 0.92804706 -0.63823104 -0.1825818
0000d0 e2 43 67 be a4 48 27 3f 3f bd ec 3e c0 4f be be
       -0.22584489 0.65345216 0.46238133 -0.3717022
0000e0 02 b6 80 3f 70 84 36 3f 34 0a bb be 8f 62 19 be
       1.0055544 0.71295834 -0.36531222 -0.14979003
0000f0 61 7f e7 3e cd 83 c5 be 78 47 4b 3f 58 01 06 3f
       0.4521437 -0.3857712 0.7940593 0.523458

model_1/activation_25/Relu;model_1/batch_normalization_35/FusedBatchNormV3;model_1/depthwise_conv2d_11/depthwise;model_1/depthwise_conv2d_11/BiasAdd;model_1/depthwise_conv2d_13/depthwise;model_1/depthwise_conv2d_11/BiasAdd/ReadVariableOp f4 [64]
000000 50 fe ba 3e fb fb 10 be 44 41 05 3f ae 82 31 bf
       0.3652215 -0.14158623 0.5205271 -0.69340026
000010 c9 ef d7 bd c5 33 32 be 2b 1f 4d 3f 80 45 78 3f
       -0.10543782 -0.17402561 0.80125684 0.9698105
000020 e5 6f 09 39 1d 0c 62 bf fd 88 57 bf c2 d9 91 bf
       0.00013107022 -0.88299733 -0.841934 -1.139458
000030 f8 5f 0a bf 15 97 bc 3e dc 36 29 bf 72 be 61 bd
       -0.54052687 0.36834016 -0.66099334 -0.055113263
000040 d0 7c 36 bf 8e 2d 17 3f c1 21 9b be 4c c8 61 bf
       -0.712842 0.59053886 -0.3029919 -0.88196254
000050 a6 20 1b bf 34 dc af 3f 1c 2f 0c 3f 02 72 84 3f
       -0.6059669 1.3739076 0.54759383 1.0347292
000060 1e ef 37 bf 5f 3f a2 be 7e a6 f6 bf c1 3d 31 bf
       -0.7184924 -0.31688973 -1.9269559 -0.69234854
000070 63 bc a9 be 8b 45 20 bf a5 cf 24 bf fc 9d 2d 3e
       -0.3315154 -0.62606114 -0.6437934 0.16954798
000080 7d 98 58 be 52 68 4a be 8a f0 a5 3f 38 17 db 3e
       -0.2115192 -0.19766358 1.2964032 0.42791152
000090 23 70 15 3f 6e f8 a3 3e f5 ca 51 3f 29 6f 3a bf
       0.5837423 0.32025474 0.8195031 -0.72825867
0000a0 a2 ca 33 be 2b ff 4e 3f ff f6 20 bd fc 89 93 3f
       -0.17557767 0.80858105 -0.039298054 1.1526484
0000b0 be 1e 88 3b 46 aa f8 3e ee 7f 6c 3f be b7 59 bf
       0.0041540554 0.48567408 0.92382705 -0.85045993
0000c0 bf 2a 71 3f 69 c7 88 3f ac 9b be be 79 21 64 be
       0.9420585 1.0685855 -0.37228143 -0.22278394
0000d0 b3 0a da bc 57 64 35 3f ec 35 10 bf 91 42 48 be
       -0.02661643 0.7085623 -0.5633228 -0.19556643
0000e0 5f f4 04 3f fa d9 0d 3e cc 74 90 3f b5 65 96 3e
       0.5193538 0.13852683 1.1285644 0.2937447
0000f0 c0 3c 04 3f 0c 1c 0c be 9a 43 38 bf 2a ee 90 3f
       0.516552 -0.13682574 -0.7197815 1.1322682

model_1/activation_27/Relu;model_1/batch_normalization_38/FusedBatchNormV3;model_1/depthwise_conv2d_12/depthwise;model_1/depthwise_conv2d_12/BiasAdd;model_1/depthwise_conv2d_13/depthwise;model_1/depthwise_conv2d_12/BiasAdd/ReadVariableOp f4 [64]
000000 a7 97 9c bf c6 a7 91 3f e2 95 31 be 21 9c a8 be
       -1.2233781 1.1379325 -0.17342332 -0.32931617
000010 25 06 9d be 1c 31 56 3f cb 64 72 3e 12 e2 0f bf
       -0.3066875 0.83668685 0.23671262 -0.5620433
000020 47 dc 83 bf d4 9d f4 3e 46 1d 94 3f fe 12 72 be
       -1.0301598 0.47776663 1.1571434 -0.23640057
000030 3e d0 29 3f e3 f3 27 bf 3b ad 0d bf cf de 0f bf
       0.6633338 -0.65606517 -0.55342454 -0.56199354
000040 07 a8 8f 3f 7b d8 22 3e d0 84 4a 3f ce f6 60 be
       1.1223153 0.15902893 0.79108906 -0.21969149
000050 cd bf 0d bf e4 ff 86 be 7b 5f 88 bf b3 6f 05 bf
       -0.5537079 -0.26367104 -1.0654138 -0.52123564
000060 90 a7 91 3f dd f2 cd bd 52 9c 85 3f 00 c0 b9 3f
       1.1379261 -0.10056088 1.043833 1.4511719
000070 ca 07 99 3f 35 5e 36 bf ef 1a 34 bf 5e 87 55 be
       1.1955502 -0.712375 -0.703536 -0.2085242
000080 56 60 6c 3f fb 1b 4c 3f 84 90 92 3f f0 1a ec bd
       0.92334497 0.79730195 1.1450353 -0.115285754
000090 46 20 a0 3e 45 ce 7f 3e 76 e8 86 bf b2 20 08 bf
       0.31274623 0.2498103 -1.0539691 -0.5317489
0000a0 7c 83 59 3f ad 61 ce be c2 c2 83 bf 2c 1e b8 3f
       0.84966254 -0.40308896 -1.029381 1.4384208
0000b0 ec 5e 54 be 99 1e 9c be 3a 2d eb 3e cd 0e 5b bf
       -0.20739335 -0.30492094 0.45932943 -0.8556946
0000c0 00 c7 1e bf 16 99 d1 be c0 25 5b be fa dc 8a bf
       -0.620224 -0.40937108 -0.21401119 -1.0848687
0000d0 ff fd ae bd d8 f5 19 bf d7 6d fa 3e 7f 4a 1f 3f
       -0.0854454 -0.6014075 0.48911926 0.62223047
0000e0 a0 24 81 3f c7 28 99 3f c7 af c4 be a9 79 4d 3e
       1.0089302 1.1965569 -0.38415357 0.20065941
0000f0 8f 0a 9b bd 1e 14 b1 3f 4a 10 6d bf 7d 4e 9d bf
       -0.07570373 1.3834264 -0.9260298 -1.2289578

model_1/activation_29/Relu;model_1/batch_normalization_41/FusedBatchNormV3;model_1/depthwise_conv2d_13/depthwise;model_1/depthwise_conv2d_13/BiasAdd;model_1/depthwise_conv2d_13/BiasAdd/ReadVariableOp f4 [64]
000000 d0 d8 88 bf ed b4 b7 be a1 c8 97 3f cb df 48 3f
       -1.0691166 -0.35880223 1.1858102 0.7846648
000010 d9 9f 0c bf 1f 98 c1 3f 67 e9 ac be c2 e4 15 bf
       -0.5493141 1.5124549 -0.33771822 -0.5855218
000020 ce a2 08 40 d4 f2 1e 3f e2 49 53 3d 2d 27 53 bd
       2.1349368 0.62089276 0.051584132 -0.051551033
000030 f6 45 9d be b2 51 f4 be e1 5c 69 bc 57 ef 26 3e
       -0.30717438 -0.4771858 -0.014243335 0.16302238
000040 6a f5 84 3d 1d 09 23 bf 10 21 d6 3f 98 41 2d bf
       0.064921215 -0.6368578 1.672884 -0.67678213
000050 44 f4 1c 3f b1 07 33 be 7c cd f7 3f 3c d2 c5 bf
       0.6131022 -0.17483403 1.9359584 -1.5454783
000060 41 22 1a 40 a7 a3 c6 be fc b1 9e be c1 a3 a3 be
       2.4083407 -0.38796732 -0.30995166 -0.31960872
000070 d3 cb d0 3f 6b ca 3c bf fe d4 dd 3f 4a 4e 49 bf
       1.6312202 -0.73746365 1.7330625 -0.78635085
000080 ca 0f 2f bf 39 87 76 3f 44 ac d4 3d 10 c4 0f bf
       -0.6838347 0.96300083 0.103844196 -0.5615854
000090 3d ef 8b bf cb fc 30 be 14 33 88 3e 11 ab 14 bd
       -1.0932385 -0.17283933 0.2660147 -0.036295954
0000a0 b1 50 8e bc 72 cc ca 3f dc 29 c8 bc 84 e6 0c 40
       -0.017372461 1.5843642 -0.024434023 2.2015696
0000b0 24 d8 32 bf 09 7d 65 be d9 3b 84 be 0b e0 a5 bd
       -0.69861054 -0.22410978 -0.2582691 -0.080993734
0000c0 2f 01 e7 3f 65 f4 da be 51 58 9c be 25 c2 c9 3f
       1.8047236 -0.42764583 -0.3053613 1.5762373
0000d0 0d 05 1f 3c 10 e3 0e bf 5c c4 d0 3f c2 7d a9 3f
       0.009705794 -0.5581522 1.6309924 1.3241503
0000e0 f5 fb 46 3f 51 0e 0f 40 4f 01 b6 3c 72 8a 9e bc
       0.77728206 2.2352488 0.02221742 -0.019353125
0000f0 a4 ae 14 40 95 89 f0 bd d3 1f ee 3f ba ed a5 3f
       2.3231592 -0.11744992 1.8603462 1.2963173

model_1/activation_31/Relu;model_1/batch_normalization_44/FusedBatchNormV3;model_1/depthwise_conv2d_14/depthwise;model_1/depthwise_conv2d_14/BiasAdd;model_1/depthwise_conv2d_16/depthwise;model_1/depthwise_conv2d_14/BiasAdd/ReadVariableOp f4 [80]
000000 36 53 a0 bd 30 28 0e bd 97 fd 84 be 14 fc c3 bd
       -0.07828371 -0.034706295 -0.25974724 -0.095695645
000010 9e ef f5 3f 2e b9 27 bf e0 54 18 bf 5b a2 20 3e
       1.921375 -0.65516937 -0.5950451 0.15686934
000020 f7 ad c9 bc b6 6e b2 bf 5c 2d d7 3f 1d 35 4f bf
       -0.024619086 -1.3940036 1.6810718 -0.8094042
000030 39 67 af 3e 03 f0 80 3f ac 4b e6 bd 21 84 ac bd
       0.3425844 1.0073246 -0.11244902 -0.08423639
000040 70 ff a3 3c 5e b6 4c bf 98 08 15 bf 8b e8 06 3f
       0.020019263 -0.7996577 -0.5821624 0.5269858
000050 29 25 ec 3f c3 8a 18 3e 02 95 9a 3f 35 1e a0 3f
       1.844884 0.14896683 1.2076724 1.2509218
000060 c6 ef 89 bd ed e6 27 bf 1f 8b 21 bf 2c e1 6c 3e
       -0.06735186 -0.6558674 -0.63102907 0.23132771
000070 e5 6f 9d 3f e6 05 84 3e e4 26 68 be 5f 68 bc 3e
       1.2299773 0.2578575 -0.22671086 0.3679838
000080 99 14 9a bd 80 84 ac 3f 68 37 a2 3e bf ef 6c 3f
       -0.0752346 1.3477936 0.31682897 0.92553324
000090 57 d1 18 bf d9 f1 b5 bd c4 43 20 be b1 5f d3 bd
       -0.5969443 -0.088840194 -0.1565085 -0.10320986
0000a0 f5 09 f3 bc 2d 2e ae 3f 0f 2c fc bd 98 40 26 be
       -0.029667834 1.3607842 -0.12313091 -0.16235578
0000b0 4d 2a fb be 0e 3d 8f 3f a5 2e b1 3f 71 0d 51 be
       -0.4905571 1.1190507 1.384236 -0.20415284
0000c0 5a e9 9e 3f cf 00 df 3e 21 2c a2 3d 3a 55 50 3e
       1.2414963 0.43555304 0.07918573 0.20345011
0000d0 41 33 68 bf 13 be b5 3f 3d 5b ba 3f 2e 86 2a be
       -0.9070321 1.4198631 1.4559094 -0.16652748
0000e0 d6 9f 8c bf e2 ce 3c bd 81 65 ba 3f f1 20 bc 3e
       -1.0986278 -0.046095736 1.4562227 0.36743882
0000f0 90 50 e4 3f 96 ce 42 3f 84 ad 44 bf 51 60 3b 3f
       1.7837086 0.76096475 -0.76827264 0.7319384
000100 26 7c 00 bf 2d 0b f6 3e cb 61 a3 3f 64 d6 90 3c
       -0.50189435 0.480554 1.2764219 0.017680354
000110 2b a8 59 be 75 7e 46 bd 29 f9 e4 3f a2 bb 54 bf
       -0.21255557 -0.048460443 1.7888538 -0.83098805
000120 ce 94 a1 3d 09 04 d1 3f fb 24 75 3e c7 23 5d 3f
       0.0788971 1.6329356 0.23939888 0.86382717
000130 4b 54 be be 4b e5 e4 bc d8 18 aa be c4 d6 c7 3f
       -0.37173685 -0.027941367 -0.3322208 1.5612416

model_1/activation_33/Relu;model_1/batch_normalization_47/FusedBatchNormV3;model_1/depthwise_conv2d_15/depthwise;model_1/depthwise_conv2d_15/BiasAdd;model_1/depthwise_conv2d_16/depthwise;model_1/depthwise_conv2d_15/BiasAdd/ReadVariableOp f4 [80]
000000 e4 c3 ca bd d3 33 19 bf 9e 2f 6f 3d a4 99 e9 bd
       -0.099006444 -0.598447 0.05839502 -0.11406258
000010 da 87 95 3e a3 fd 81 3b ca ba b7 be bf 01 2c 3f
       0.2920521 0.0039670034 -0.35884696 0.67190164
000020 e8 71 2a bf 9f a6 8f bd c3 9f 8d 3f 25 da 26 bf
       -0.6658006 -0.07014202 1.106438 -0.6517661
000030 8c a2 97 3f bf a3 35 3f f8 26 21 bc 70 7b 51 bf
       1.184648 0.7095298 -0.009835951 -0.81828976
000040 81 70 b3 3f b2 87 ac 3f 30 68 16 bf c1 d2 a1 3f
       1.4018708 1.3478911 -0.5875273 1.2642442
000050 b1 e6 5d bb b4 42 6e 3f ec 19 af 3d 53 60 0e bf
       -0.0033859427 0.9307053 0.08549866 -0.5561573
000060 c4 82 1c bf da 88 98 3f 73 d9 50 3f 2b 5a a8 3f
       -0.6113703 1.1916764 0.815818 1.3152517
000070 b1 e6 b9 3f 76 bb ad 3f 17 e2 cb 3f 8f 42 c0 3f
       1.4523526 1.3572834 1.5928372 1.5020312
000080 da 6e d9 bd 7f bc 72 bf 15 52 26 bf bb 62 87 3f
       -0.106168464 -0.9481887 -0.64969 1.0577005
000090 54 67 2e bf 2e f1 a3 3f 8d 94 5b bf 81 71 c7 bd
       -0.68126416 1.2807977 -0.85773546 -0.09738446
0000a0 1b 95 c2 3f 38 59 dd 3f e2 69 92 3f 7d fb 2f bf
       1.5201753 1.7292852 1.1438563 -0.68743116
0000b0 4b f7 19 3f 36 a4 47 bf ec ea cb 3f 4f 84 bc 3f
       0.60142964 -0.7798494 1.5931067 1.4727877
0000c0 ae a1 a5 3f 08 3f fa bc da 88 27 be 97 0b 2d 3e
       1.2939966 -0.030547634 -0.16360798 0.16898952
0000d0 78 bb aa 3f 93 6c 20 bf b8 ac ef be ce fb 33 bf
       1.3338461 -0.6266567 -0.4681146 -0.703061
0000e0 31 87 6b 3e ad d4 a6 be 3c db 0c bf ea 58 3a be
       0.2300079 -0.32584134 -0.55022025 -0.1819798
0000f0 ce 16 2c bf 0f b1 49 bf 0a 40 e8 3f 0a d3 fe be
       -0.672223 -0.78785795 1.8144543 -0.49770385
000100 e3 5c e1 be 8d 27 0e 3f 50 3a 51 3f 0e 69 de 3f
       -0.4401618 0.555291 0.817296 1.737581
000110 1c d7 b9 bc 60 b9 9f 3e e6 98 93 3f 30 9e 0d be
       -0.02268558 0.31196117 1.1531036 -0.13829875
000120 be 25 f7 be 6b b4 9f be e0 48 11 3f cf 32 57 bd
       -0.48270983 -0.31192335 0.56751823 -0.05253869
000130 15 57 44 3e 31 62 4f bd 1f ce 6d bf 56 bb a0 3f
       0.19173844 -0.050630752 -0.9289264 1.255717

model_1/activation_35/Relu;model_1/batch_normalization_50/FusedBatchNormV3;model_1/depthwise_conv2d_16/depthwise;model_1/depthwise_conv2d_16/BiasAdd;model_1/depthwise_conv2d_16/BiasAdd/ReadVariableOp f4 [80]
000000 67 e3 c4 be a9 4b fd be 57 be ba 3f 49 1e 9c 3f
       -0.38454744 -0.49471787 1.4589337 1.2196742
000010 4e e9 55 3f 19 1c cc be f4 c9 c0 3d 8b 9f 3a be
       0.8355912 -0.39865187 0.094135195 -0.18224923
000020 f8 2e 3f 3e 6d 5e 7c 3e 13 09 f9 bc ef f1 ad 3f
       0.18670261 0.24645396 -0.030399835 1.3589457
000030 4d 6e fa be ae 16 74 bf 57 2f 9f 3f 8f 96 57 be
       -0.48912278 -0.95347106 1.2436322 -0.21053527
000040 4a f9 b4 be 7f 40 12 bf 66 c6 ba 3f bd 2a 21 3f
       -0.35346442 -0.57129663 1.4591796 0.6295584
000050 13 a2 b7 3f b5 83 a9 bf 7d 7d a2 bf 9e c2 f1 bd
       1.4346336 -1.3243319 -1.2694546 -0.118046984
000060 99 6a 97 be dd 25 3b bf 42 1b 90 3f 7c f7 be 3e
       -0.29573515 -0.7310465 1.1258318 0.3729819
000070 2c ed c3 3d 5b 2c 86 be a6 8f df be 52 76 7f 3f
       0.09566721 -0.26205716 -0.43664283 0.9978992
000080 a6 9a 62 3d c6 59 1b 3f e2 7b 8e 3f fe 3e 54 bf
       0.055323265 0.6068386 1.1131556 -0.8290862
000090 4e 14 eb 3f 4b cc a0 3f cf 4b 8d bf 16 21 fc 3f
       1.8365571 1.2562345 -1.103876 1.9697597
0000a0 83 1d 2c bf 99 51 80 3f 6a 88 95 3f 27 a0 31 bf
       -0.6723253 1.0024902 1.1682255 -0.69385
0000b0 15 f8 ac 3f 0e ad 78 3e c1 d6 df 3c 68 43 0f bf
       1.3513209 0.24284765 0.027324082 -0.5596223
0000c0 c7 86 ab 3f d9 f5 c7 3f 30 b7 85 be ff 72 bc 3f
       1.3400506 1.5621902 -0.26116323 1.4722594
0000d0 fd 3a 8a be ee 47 b9 3f 38 e8 a6 3f c8 1a 00 bf
       -0.2699813 1.4475076 1.3039618 -0.50040865
0000e0 86 b3 a9 be af c1 ad 3f 85 57 f8 be c0 af 59 be
       -0.33144778 1.3574733 -0.48504272 -0.2125845
0000f0 3b 22 06 40 b5 b4 e0 3b 06 aa 68 3f fe 32 b3 3f
       2.0958393 0.0068574795 0.90884435 1.3999937
000100 5c 1c b3 3f 9f 23 ae 3f 8a 21 34 3d b1 17 fe 3f
       1.399303 1.3604621 0.043977298 1.985098
000110 13 02 99 3f 8f 94 9a be d2 22 c5 bd d4 67 ab be
       1.1953758 -0.30191466 -0.09625782 -0.33477652
000120 9d e0 a8 be 18 f3 a2 3f 99 cd d6 3c 7b ca 42 bf
       -0.32983866 1.2730436 0.026221083 -0.7609021
000130 d0 4a 88 3f 92 c5 a8 be da 30 f6 be c3 05 b9 be
       1.0647831 -0.32963234 -0.48084146 -0.36137208

model_1/activation_37/Relu;model_1/batch_normalization_53/FusedBatchNormV3;model_1/depthwise_conv2d_17/depthwise;model_1/depthwise_conv2d_17/BiasAdd;model_1/depthwise_conv2d_18/depthwise;model_1/depthwise_conv2d_17/BiasAdd/ReadVariableOp f4 [96]
000000 fc 02 02 3f 57 86 96 3f 23 e4 47 3e dd fc 87 3e
       0.50785804 1.1759747 0.19520621 0.26560107
000010 a4 75 d7 3f 8b e8 b8 3d 3e da ad 3f e9 99 2d be
       1.6832776 0.09028729 1.3582227 -0.16953243
000020 00 46 6f 3d 2a 04 b4 bf 28 3f 2f 3f e9 c2 2d bf
       0.058416367 -1.4063771 0.68455744 -0.67875534
000030 03 6b 2f be 73 86 3c bf 7d 20 8b be 31 13 09 be
       -0.17130665 -0.73642653 -0.27173224 -0.13386227
000040 0e 5d 67 bf 92 a9 8c 3e ec d1 dd 3f ca bb 52 3f
       -0.90376365 0.27473122 1.7329688 0.82317793
000050 32 f0 df 3d de 44 07 3f 95 e2 04 3e fa 65 66 bf
       0.109344855 0.5283946 0.12977059 -0.89999354
000060 93 c8 c5 3f 3c 63 92 3e 5e fe 2c 3f f3 f1 0c 3f
       1.5451835 0.28591335 0.67575634 0.55056685
000070 48 23 c8 be a7 52 c2 3d 53 b1 d1 be 63 5b a9 3f
       -0.39089417 0.09488421 -0.409556 1.3231014
000080 5f 77 1e 3f fd f1 da 3d 08 85 a5 bf e1 3a 0a 3e
       0.61900896 0.10690687 -1.2931223 0.13499023
000090 33 fc 88 bf 44 39 6c 3d 0c aa de 3f 80 12 6c 3f
       -1.0701965 0.0576718 1.7395644 0.9221573
0000a0 2f ca 43 3f 4e ba d8 3e e9 f5 03 bb 8a f6 9d be
       0.7648038 0.4232964 -0.0020135588 -0.30852157
0000b0 c3 d8 e5 be 5f 7d 81 bd 40 91 9a be d9 75 a6 bf
       -0.4489194 -0.06322741 -0.30188942 -1.3004714
0000c0 57 49 bb be f4 00 ca be 74 b7 87 3b 91 ca 84 bf
       -0.3657939 -0.39453852 0.0041417424 -1.0374318
0000d0 f1 4a 36 3f 1f e3 2c be 67 8f 42 3f b0 32 9f 3f
       0.712081 -0.16883515 0.76000065 1.2437344
0000e0 cf 48 8b bb 5b a9 92 3e a5 8c a0 3f d4 0a ee bf
       -0.004250623 0.28644833 1.2542921 -1.8597054
0000f0 40 24 55 3f fd 4b ae bd 63 19 4b 3e d0 cf e5 be
       0.8325844 -0.08510587 0.19833903 -0.4488511
000100 69 25 89 3f a9 16 43 bf 6c 90 31 bf 01 12 43 bf
       1.0714542 -0.7620645 -0.69360995 -0.76199347
000110 85 52 c1 be f7 b6 aa 3f 09 00 bb 3f 25 5c 4e 3f
       -0.3775827 1.3337086 1.4609386 0.8060935
000120 74 1c 92 3f 45 de 35 3f e8 a4 97 bd 9a ad 9c 3f
       1.1414933 0.7104228 -0.074045 1.2240479
000130 31 67 4e 3e f4 c1 b4 3d 87 2b 8c bf 20 e5 f5 3f
       0.20156552 0.08826056 -1.0950783 1.9210548
000140 65 9b e8 3f 4c bb b1 be 7f 65 d0 3f 07 61 83 be
       1.8172423 -0.3471321 1.6280974 -0.25659963
000150 47 ef 73 3f 29 d4 1e be c3 48 cc be 8c 84 a8 3f
       0.95286983 -0.1551062 -0.39899263 1.316545
000160 b6 03 b3 3e f8 4d 85 be 3e 23 b6 bc c4 97 a3 bf
       0.3496377 -0.26036048 -0.022233602 -1.278069
000170 80 c4 65 3f 53 fa a9 bf bd f9 2c bf 9d 05 4d 3f
       0.8975296 -1.3279518 -0.6756857 0.8008669

model_1/activation_39/Relu;model_1/batch_normalization_56/FusedBatchNormV3;model_1/depthwise_conv2d_18/depthwise;model_1/depthwise_conv2d_18/BiasAdd;model_1/depthwise_conv2d_18/BiasAdd/ReadVariableOp f4 [96]
000000 f9 a7 08 3e 76 c8 de 3e 91 1e 55 be a7 b2 4d 3e
       0.13345326 0.43512315 -0.20812441 0.20087682
000010 54 df 33 be f3 2d b4 3e 1a 54 74 3f 4c c4 69 be
       -0.17565662 0.35191306 0.9544083 -0.22828788
000020 34 79 19 3f 8b 13 5b 3f 2e c5 55 3e 57 f8 16 3e
       0.59950566 0.85576695 0.20876 0.14743172
000030 87 47 e1 3d d4 2c 6a 3f 5c 06 26 3f 7b 27 88 3f
       0.10999971 0.9147465 0.64853454 1.0637048
000040 9b 2a d8 be 01 c7 bd 3d 10 fa c6 be 51 e3 84 3f
       -0.42220005 0.092664726 -0.38862658 1.0381871
000050 65 da 55 3f 18 fc c1 3d 65 c4 58 3f 8f b8 5a 3f
       0.8353637 0.09471911 0.84674674 0.85437864
000060 d4 09 21 3f a7 a7 85 3e 0d 94 6b 3f 3f 4a 89 be
       0.6290562 0.2610447 0.9202278 -0.26814458
000070 b1 bb 31 bf 8e 02 83 3e 3b 79 68 3e e5 1c 0b bf
       -0.6942702 0.25587887 0.22702496 -0.54340965
000080 5c 0b 9f bd c1 e5 1a 3f 68 9f 73 bf 9e 54 dd 3e
       -0.077658385 0.60506827 -0.9516511 0.4322862
000090 57 a9 2d 3f 38 ad 52 3f c4 ae 46 3e 42 ae 35 3f
       0.6783652 0.8229556 0.19402605 0.7096902
0000a0 3c 17 68 3f 62 e4 62 3f 6a ef b2 be 26 c9 0d bf
       0.9066045 0.88629735 -0.34948283 -0.55385053
0000b0 41 0c 02 be 6c 8b 1c 3f 48 da 23 3f a2 f7 0d 3f
       -0.12699987 0.6115024 0.64004946 0.5545598
0000c0 01 6c 99 bd 84 34 d6 bd 09 cb 9c be c9 73 88 3e
       -0.07491303 -0.10459235 -0.30623654 0.26650837
0000d0 52 c6 cc 3d 4b 0e f1 bd 21 7b f3 3e d5 e0 18 be
       0.09998764 -0.11770304 0.47554877 -0.14929517
0000e0 8a f8 21 3f 60 a9 9b 3e d8 95 af 3e 87 d0 0a bd
       0.63269866 0.3040266 0.3429401 -0.033890273
0000f0 98 74 7b 3e ee aa 1a 3e 49 52 1b bf 24 16 57 3f
       0.24556196 0.15104267 -0.6067243 0.8401816
000100 d4 f0 62 bf b9 1a b8 be e6 88 03 be 57 f8 4d 3f
       -0.88648725 -0.35957888 -0.12845191 0.8045706
000110 33 c4 bb 3e ba e1 c9 3e d6 3d f9 3d 9e 42 55 3f
       0.36673126 0.39430028 0.121699974 0.83304775
000120 b7 d6 f3 3d ce ad 4f 3e e6 98 7f bd 91 e4 b0 3e
       0.11906188 0.20281145 -0.062401675 0.34549382
000130 dc ed 49 3f b7 bf 83 bd df 72 25 be 2f 41 81 be
       0.7887857 -0.06433051 -0.16157101 -0.25245044
000140 b0 02 4d 3f cb 60 87 be f2 df 56 3e c6 fd 95 3e
       0.80082226 -0.26441035 0.20983866 0.29295176
000150 3b 5b 1f 3e 92 e3 c0 be 66 9c 4d bf 77 8f 14 3f
       0.15562145 -0.37673622 -0.8031677 0.5803141
000160 74 cd 0c 3f 33 a0 7b bf 79 da 8a bc 69 50 a4 bd
       0.55000997 -0.9829132 -0.016949879 -0.080231495
000170 b6 19 82 3e 05 56 4c 3f 98 5f 47 be 4a 50 db be
       0.2541024 0.79818755 -0.1947006 -0.42834693

model_1/activation_1/Relu;model_1/batch_normalization_1/FusedBatchNormV3;model_1/conv2d_1/BiasAdd/ReadVariableOp;model_1/conv2d_1/BiasAdd;model_1/batch_normalization_39/FusedBatchNormV3;model_1/conv2d_27/BiasAdd/ReadVariableOp;model_1/conv2d_27/BiasAdd;model_1/conv2d_27/Conv2D/ReadVariableOp;model_1/conv2d_27/Conv2D;model_1/conv2d_1/Conv2D/ReadVariableOp;model_1/conv2d_1/Conv2D f4 [32]
000000 0b 94 33 c0 f3 fd 77 40 39 f5 18 40 ee 08 02 40
       -2.8059108 3.8748748 2.3899672 2.031795
000010 8c 48 a9 c0 dc c8 3c bf d0 f6 3a bf 8e a8 01 40
       -5.290106 -0.7374399 -0.73032856 2.0259128
000020 58 9c ce be 2c 46 53 40 5b bb 4f c0 7e ff 58 c0
       -0.40353656 3.301158 -3.2458103 -3.390594
000030 8b 65 36 40 d8 86 56 40 e6 b5 c1 c0 e3 3e 45 40
       2.8499477 3.3519802 -6.0534544 3.0819633
000040 65 c6 32 3f de 22 34 40 e1 7d 76 c0 be 8e 61 40
       0.69833976 2.8146281 -3.851433 3.5243373
000050 94 e8 49 be af 47 53 40 4e a8 68 c0 8d fb 0f 40
       -0.19717628 3.3012502 -3.6352725 2.2497284
000060 21 21 9e c0 17 da 6f 40 5d b2 fe bf 48 29 f0 3f
       -4.941544 3.7476861 -1.9898182 1.8762598
000070 b1 1d 2d 40 74 7a c1 3e 8b 18 50 c0 a2 72 15 40
       2.7049372 0.37788737 -3.251498 2.3351216

model_1/activation_2/Relu;model_1/batch_normalization_2/FusedBatchNormV3;model_1/conv2d_2/BiasAdd/ReadVariableOp;model_1/conv2d_2/BiasAdd;model_1/depthwise_conv2d_13/depthwise;model_1/conv2d_2/Conv2D/ReadVariableOp;model_1/conv2d_2/Conv2D f4 [64]
000000 a2 9c c0 3f 50 1c a2 3f 7c 1f 21 bf 81 19 05 40
       1.50478 1.266489 -0.62938666 2.0796816
000010 dc ee 58 3f c2 cf 7b bf 96 df 82 3e df d0 ce 3f
       0.8473947 -0.9836389 0.25561208 1.6157492
000020 ea f3 f1 bf 67 c7 af bf fe 65 0b bd 4a 06 51 bf
       -1.8902562 -1.3732728 -0.034032814 -0.8165022
000030 6f 43 95 3e 85 bb 14 3f 13 30 d1 3f 90 17 1a 3f
       0.2915301 0.5809863 1.6342796 0.60192204
000040 a4 6c 04 40 6a 30 6d 3e 65 26 a3 bf ab f6 99 be
       2.069131 0.23163 -1.2746092 -0.30071005
000050 09 fb 25 3f ef 82 c3 3e 82 34 0e 3f b2 c2 ea 3e
       0.64836174 0.38185832 0.5554887 0.45851666
000060 48 f6 59 bf 1d e3 25 bf 6d 24 df 3e 62 98 0d bf
       -0.8514142 -0.6479967 0.43582478 -0.5531064
000070 79 f3 80 bf 9b b2 7e bf f6 26 11 bf 14 08 df be
       -1.0074302 -0.9949128 -0.56700075 -0.4356085
000080 46 4b 76 3c e9 48 10 bf d6 13 9b bf 11 2a 91 3f
       0.015032595 -0.5636125 -1.2115428 1.1340963
000090 30 4f 31 bf 3a f2 09 3e 55 90 0f bf 22 16 8e bf
       -0.69261456 0.13471308 -0.5607961 -1.1100504
0000a0 d2 30 2a bf 39 0d 1a 3e 90 f6 2b 3f 43 91 1f be
       -0.66480744 0.15044107 0.671731 -0.15582757
0000b0 4a a5 e1 3e fe d7 30 3f ec f2 87 3f 2e ce 90 3f
       0.44071418 0.6907958 1.0621009 1.1312921
0000c0 7c 8b 44 be bd 30 8f 3f 04 7b 0e bf 74 6c a4 bf
       -0.19193834 1.1186749 -0.55656457 -1.2845597
0000d0 1a d3 af 3e ae 8a ab 3f 3a f9 00 40 dd 57 17 3f
       0.34340745 1.3401697 2.0152116 0.59118444
0000e0 3c 76 36 bf b3 05 a2 be a5 57 93 3f ca c1 5a bf
       -0.7127416 -0.31644973 1.1511122 -0.8545195
0000f0 f8 f6 b1 bf 1a 36 dc 3f 61 16 7f 3e 4f 57 36 bf
       -1.3903494 1.720401 0.2491088 -0.7122697

model_1/batch_normalization_3/FusedBatchNormV3;model_1/depthwise_conv2d_1/depthwise;model_1/depthwise_conv2d_1/BiasAdd;model_1/depthwise_conv2d_13/depthwise;model_1/depthwise_conv2d_1/BiasAdd/ReadVariableOp f4 [1, 3, 3, 64]
000000 3c 05 ef 3d 92 03 54 be a3 1a be 3e 5a 2c b3 3e
       0.1167092 -0.20704487 0.37129697 0.34994775
000010 94 70 a0 3e fd 60 d3 3b 64 82 ae be 92 b4 1f bf
       0.3133589 0.006450771 -0.34083855 -0.62384903
000020 de 18 e2 be 2a 1a 97 be 55 c8 00 3e d2 a3 f1 3e
       -0.44159597 -0.2951215 0.1257642 0.47195297
000030 e9 7f a0 be fc 32 28 bf f4 6e ad be 6e 00 b6 bd
       -0.31347588 -0.65702796 -0.33873713 -0.08886801
000040 b8 4f 90 be f7 3b 3d 3d ab a0 41 be e1 c7 a9 be
       -0.2818582 0.046199765 -0.18908946 -0.33160308
000050 6b 20 86 be 7d e6 f8 be bc 71 07 be 0d 6e c5 bd
       -0.26196608 -0.4861335 -0.1322698 -0.09640131
000060 e2 0f d4 3f fb 57 24 3d 09 00 ec 3e 01 75 f4 bd
       1.6567347 0.040122967 0.46093777 -0.11936379
000070 c0 62 10 be c8 8f 38 bf 25 bb 24 bf 26 5a 40 bf
       -0.1410017 -0.7209439 -0.6434806 -0.75137556
000080 90 b3 20 be 4b f7 a0 bf f2 1c 21 bf 6d f8 79 40
       -0.15693498 -1.2575468 -0.6293479 3.9057877
000090 b6 8a 7e bf 21 79 79 3f c6 b6 e4 be 7c d3 09 bf
       -0.99430406 0.97450453 -0.44670695 -0.53838325
0000a0 9b 7d bd be 41 af b8 3e 48 3f fa 3d 4e 4f 44 3c
       -0.37009892 0.36071208 0.12219101 0.011981798
0000b0 83 54 a8 be a5 79 49 be 2f 02 24 3e 92 79 ca 3e
       -0.32876977 -0.1967531 0.16016458 0.39545876
0000c0 86 f2 c5 3e 48 2a b5 bf cd c1 85 3d c9 4f 44 be
       0.38661593 -1.4153528 0.06531105 -0.1917106
0000d0 41 1a d8 be 3b 32 19 bd cd cb 87 be c1 93 3f 3f
       -0.4220753 -0.03740142 -0.26522675 0.7483483
0000e0 1d 29 79 be 18 f6 15 be 17 e6 c9 be bf b2 09 3d
       -0.2433209 -0.14644659 -0.39433357 0.03361773
0000f0 60 1f f3 be a7 c2 fc be fc 34 2b bf 36 80 dd be
       -0.47484875 -0.49367258 -0.6687772 -0.4326188
000100 2f dc 81 3e fb c9 d1 be 8a 9a 76 3f 0d 84 9d 3f
       0.253633 -0.4097441 0.9632956 1.2305924
000110 78 da 18 3f 3b 8e d2 3d ed 5e 32 bf 28 1a bf be
       0.59708357 0.102810346 -0.69676095 -0.37324643
000120 7c 12 c6 be 86 95 02 bf 41 7b 4e 3e 89 c6 09 3f
       -0.38685977 -0.51009405 0.20164205 0.53818566
000130 ce a9 40 3f 47 6f 39 bf 02 fe f7 be c8 f0 3a bf
       0.752591 -0.7243542 -0.4843598 -0.73023653
000140 41 e1 1f bf 50 3d 84 3f f4 48 b1 be 9d 1b 84 3e
       -0.62453085 1.0331211 -0.3462597 0.25802317
000150 32 ea 3a bf ed e5 04 be d8 77 9d be 91 63 8d bd
       -0.73013604 -0.12978335 -0.30755496 -0.069037564
000160 08 85 04 40 00 c8 0a 3e 68 72 63 3e 6d 53 19 bf
       2.0706196 0.13552856 0.22211611 -0.5989292
000170 47 f7 c0 be 2d 04 41 bf 52 ef 58 bf 94 25 1f bf
       -0.37688658 -0.75396997 -0.84740174 -0.62166715
000180 e4 1b df 3e 99 28 e8 3c 08 e3 8c be cb 2b 2c 40
       0.43575966 0.028339671 -0.2751696 2.690173
000190 72 8c 3c bf a9 1a 75 3f e2 9c 45 bf 03 2a a8 bc
       -0.736518 0.95743805 -0.7719251 -0.020527845
0001a0 cf 04 49 bf b7 d5 b2 3e 78 94 f0 bd 5e 6e 14 3f
       -0.7852296 0.34928676 -0.11747068 0.57980907
0001b0 05 29 d9 be 4a cc 9c bc e6 a3 f5 bc 1b cc 25 bf
       -0.42414108 -0.019140381 -0.02998538 -0.64764565
0001c0 61 40 f2 bc 8f 52 65 be 45 3c b9 be 0a 83 91 bd
       -0.029571714 -0.22394775 -0.36178795 -0.07105072
0001d0 a1 a9 52 bf 12 67 a3 3e 5c b1 e1 be 99 8f 12 3f
       -0.82290083 0.31914574 -0.44080627 0.5725036
0001e0 1b ce d1 be 3d 2d 90 3e 4f f3 09 bf 9e f3 f6 3e
       -0.40977558 0.28159514 -0.53886884 0.4823274
0001f0 a6 c3 50 be 2d 5f a1 bf f4 1b 3c bf 49 cb 55 bf
       -0.20387134 -1.260717 -0.73480153 -0.83513314
000200 58 65 35 3e 7d ac 66 3f 1c 74 48 3f 6c 90 26 3f
       0.17714441 0.90106946 0.7830217 0.6506412
000210 86 13 67 3e e6 ab 22 be b0 cd fe be c4 73 24 bf
       0.22566041 -0.15885887 -0.49766302 -0.64239144
000220 b5 6e d2 be 4f 77 de 3d e3 ca cc 3b 33 71 93 3e
       -0.41100088 0.108626 0.006249772 0.28797302
000230 46 13 62 3f dd 50 15 bf 21 94 37 be 2d c1 db be
       0.8831066 -0.5832651 -0.179276 -0.4292082
000240 dd eb ed be 20 0c 6f 3f 45 97 3d bf 3b 6b 24 be
       -0.46469012 0.93377876 -0.74058944 -0.1605653
000250 25 96 9f bf 7f 1e 4d 3e 02 22 24 be f0 4b d3 be
       -1.2467695 0.20031165 -0.16028598 -0.41268873
000260 92 b5 07 3f c4 27 61 3f 68 20 ab bd 9d b2 02 bf
       0.5301143 0.879513 -0.083557904 -0.5105379
000270 ad 80 31 bc 61 d0 6f be 48 dd 12 bf 9e 95 12 3f
       -0.010833901 -0.23419334 -0.573689 0.5725955
000280 98 a4 29 3e d3 4b ca 3f dc d6 1f be 92 f7 74 bf
       0.16566694 1.580439 -0.15609306 -0.9569026
000290 2c 8c a5 3e d0 52 06 3e 8c 6e 10 bf 9c 21 31 be
       0.32333505 0.13117528 -0.5641868 -0.17297977
0002a0 72 7d 83 be d1 6a dc 3e 14 2a 0a 3e 07 5e 3b bf
       -0.25681645 0.43050244 0.13492614 -0.7319035
0002b0 58 15 1e bd 07 5c d3 3d 1b f6 9c bd 02 af 84 bf
       -0.038594574 0.10320287 -0.076641284 -1.0365908
0002c0 60 28 f0 be 2e 8d 94 3f 5c 4a ec be 01 f0 2d be
       -0.46905804 1.1605585 -0.46150482 -0.16986085
0002d0 fa 57 72 be fe 43 df 3e 40 0f 12 bf 1c a3 b2 3e
       -0.23666373 0.4360656 -0.5705452 0.34890068
0002e0 b0 61 10 bd d6 0b 6f 3d 9e 6a 3d bf 1c 2c 27 3f
       -0.035249412 0.058360897 -0.7399081 0.6530168
0002f0 0b bd 90 3d f3 91 9c be 8d e7 dc bd 4b c7 01 bf
       0.07067307 -0.305801 -0.10786352 -0.5069472
000300 4f 54 fd 3d 01 ab fa be 48 33 88 be 6a 04 8d be
       0.12369596 -0.4895859 -0.26601624 -0.2754243
000310 8a 6c 9d 3d 28 98 42 3e 94 98 29 3e b1 3c 25 3e
       0.07686718 0.19003356 0.1656211 0.16136433
000320 45 35 22 bf f3 dc ee be 00 5b ec be c1 d2 9c 3d
       -0.6336253 -0.46652946 -0.46163177 0.076573856
000330 78 ff b0 be a7 3c 42 be d0 56 b6 be df 8c e4 bd
       -0.34569907 -0.1896845 -0.35613108 -0.111596815
000340 23 91 9f 3e dd db 80 bf b2 7f 1e 3f 37 8d 06 be
       0.31165418 -1.0067097 0.619136 -0.13139807
000350 e6 34 4d 3f d6 85 6a bf cf d8 19 bf 65 f4 d7 be
       0.8015884 -0.9161047 -0.6009645 -0.42178646
000360 4d c3 40 bf ab 86 9a bd 1c 2c dd be d1 07 04 3f
       -0.75298005 -0.07545217 -0.43197715 0.51574427
000370 fc c1 7e 3f 07 c4 28 be 65 a1 8d 3e 10 e1 3a be
       0.99514747 -0.16481028 0.27662197 -0.18249917
000380 36 c9 c0 3e b4 94 a6 be af e2 ac be c8 d8 a5 be
       0.37653512 -0.32535326 -0.33766696 -0.32391953
000390 31 93 48 be b7 b8 06 3e 28 2e 6c be bf f4 08 bd
       -0.19587399 0.131564 -0.23064482 -0.033436533
0003a0 9c ae 4f be c0 e9 74 3e 3e 38 7a be 73 4e d7 3e
       -0.20281452 0.23917294 -0.24435517 0.4205204
0003b0 2a e3 fd be d6 a7 19 bf 12 53 97 be 2b bc 06 3f
       -0.49587375 -0.6002172 -0.29555565 0.5263087
0003c0 fe e6 26 3f 25 36 20 c0 53 d4 c0 be d4 b8 16 bf
       0.65196216 -2.5033047 -0.3766199 -0.58875775
0003d0 f1 0a 5f bd dd bf 1a 3f 49 64 80 be fa 28 75 3e
       -0.054453794 0.6044901 -0.25076512 0.23941413
0003e0 67 89 8a be fe 19 93 3e 18 64 19 3e de 6f 00 3f
       -0.27057955 0.28730768 0.14979589 0.50170696
0003f0 39 d7 3a be 14 70 3b be 2b 59 43 bd f2 b0 f8 3e
       -0.18246163 -0.18304473 -0.04769246 0.485725

model_1/batch_normalization_4/FusedBatchNormV3;model_1/conv2d_3/BiasAdd/ReadVariableOp;model_1/conv2d_3/BiasAdd;model_1/batch_normalization_39/FusedBatchNormV3;model_1/conv2d_27/BiasAdd/ReadVariableOp;model_1/conv2d_27/BiasAdd;model_1/conv2d_27/Conv2D/ReadVariableOp;model_1/conv2d_27/Conv2D;model_1/conv2d_3/Conv2D/ReadVariableOp;model_1/conv2d_3/Conv2D f4 [32]
000000 71 f4 c3 be 00 07 49 bf 31 bb a9 3d 20 81 c7 be
       -0.38272431 -0.78526306 0.08287657 -0.38965702
000010 c7 b5 99 bf d2 90 d7 3f 07 8b d8 3e a1 30 4f bf
       -1.2008599 1.6841071 0.4229357 -0.80933577
000020 f5 de 07 3f 9d 44 bb 3e 58 e1 3b 3e 57 49 8e be
       0.5307458 0.36575785 0.1834768 -0.2779033
000030 8f 37 15 bf d5 b4 fd bd 34 5d 1e 3f d5 e2 ca bf
       -0.582879 -0.123880066 0.61860967 -1.5850474
000040 35 7c 29 bf 5c 4e eb bf bf df 7a bf 9a 91 b0 be
       -0.6620515 -1.8383288 -0.9799766 -0.34486085
000050 63 ee 83 3f 56 b1 55 3d 85 ea ee 3f 2b 7c a0 bf
       1.0307125 0.052171074 1.866532 -1.2537893
000060 d4 a6 cf be e0 20 b3 3c 2e c1 a5 bf 44 9a 80 bf
       -0.40556967 0.021866262 -1.2949579 -1.0047078
000070 b2 30 70 3f 6d 19 d7 be 60 83 26 bf d2 1b 63 bf
       0.93824303 -0.42011586 -0.6504421 -0.88714325

model_1/activation_4/Relu;model_1/batch_normalization_5/FusedBatchNormV3;model_1/conv2d_4/BiasAdd/ReadVariableOp;model_1/conv2d_4/BiasAdd;model_1/depthwise_conv2d_13/depthwise;model_1/conv2d_4/Conv2D/ReadVariableOp;model_1/conv2d_4/Conv2D f4 [64]
000000 66 e5 fe 3d a1 7b 74 bd 1d f4 db bd c8 b4 2b be
       0.12446098 -0.059688214 -0.1073992 -0.16768181
000010 6d 00 9f 3e 2c bc 4c 3e e7 0b ef bd d0 87 64 3e
       0.31055012 0.19993657 -0.11672192 0.22317433
000020 9a 83 4c 3e 06 72 b1 3d 03 34 1d 3e f6 fc 2d 3d
       0.19972077 0.08664326 0.15351872 0.04247757
000030 50 8e b0 3e c1 db f6 3e f1 50 ba 3d f2 ce 46 3e
       0.34483576 0.48214534 0.090974696 0.19414881
000040 36 c7 5e 3e 3a a5 a2 3e 40 9a 7d 3e 43 4a 2f be
       0.2175568 0.31766683 0.24765873 -0.17118172
000050 7a 27 e7 3d 89 50 30 3e af 86 c0 3d a5 13 02 3e
       0.112868264 0.17218222 0.09400689 0.12702806
000060 9f 96 17 3e af e4 f4 bd aa bf ab 3e 46 fe 7c be
       0.14803551 -0.119576804 0.33544666 -0.24706373
000070 11 8b 01 3e 77 18 60 3e c9 5a d1 3e 0e 6a 23 3e
       0.12650706 0.21884333 0.40889576 0.15958425
000080 aa 7b 47 3e bd 98 b0 3e 99 39 4c 3e 34 85 54 3e
       0.19480768 0.3449153 0.19943847 0.20753938
000090 f7 64 82 3d 2d 25 7a 3e b9 9d 8c bd be 88 dd bd
       0.06366914 0.24428244 -0.06866021 -0.10817097
0000a0 24 53 1e 3f d5 7a bc be 2e d7 39 bc 22 8d 1b 3e
       0.6184561 -0.36812463 -0.011342807 0.15190557
0000b0 1a 70 dc 3d 8b 18 c0 3e 3f 68 19 be 80 56 dd 3e
       0.10763569 0.37518725 -0.14981173 0.43230057
0000c0 8c 9a 92 3e 6d 26 8f 3e 87 b0 63 be 95 78 2c bd
       0.28633535 0.27959004 -0.22235309 -0.042107183
0000d0 65 00 34 3d 9a fd 5b 3e 93 af a4 bd 71 ea 3f 3f
       0.04394569 0.2148346 -0.080413006 0.74967104
0000e0 c4 ec 43 3e 88 13 b8 3e be fa e8 3d 2b 63 ce bc
       0.19133288 0.359524 0.1137595 -0.025193771
0000f0 02 4f 08 3e 5c a7 4c 3e 33 5e d8 3e c9 b8 35 be
       0.13311389 0.19985718 0.42259368 -0.17746271
