task1b/pretrained_models/smallfcnn-model-0.9618-quantized.tflite (tflite, 248432 bytes, 21 tensors)

model_1/dense_2_1/BiasAdd/ReadVariableOp f4 [3]
00000000: 9f43 a440 f359 a440 cb39 a440
5.1332545 5.13598 5.132055

model_1/batch_normalization_1/FusedBatchNormV3 f4 [6]
00000000: 915a 8d40 b086 8a40 4a09 c942 4336 c642
00000010: 8d3f 1a43 7a31 1a43
4.4173055 4.3289413 100.51814 99.10598 154.24825 154.19327

model_1/batch_normalization_1/FusedBatchNormV31 f4 [6]
00000000: c6aa 0bc0 fa57 1ec0 664c cb3e 056f 6e3f
00000010: a717 46bf d49e f53d
-2.1822982 -2.4741197 0.39706725 0.9313815 -0.7737984 0.11993185

model_1/batch_normalization_9/FusedBatchNormV3 f4 [3]
00000000: 4b9e 0f40 c344 0f40 e6dd fa3f
2.2440364 2.238572 1.9598968

model_1/batch_normalization_9/FusedBatchNormV31 f4 [3]
00000000: cc76 56bf 9335 58bf a4fe 4abf
-0.8377502 -0.8445675 -0.792948

model_1/dense_1/Tensordot/MatMul f4 [1, 3]
00000000: fc13 febc 2533 2ebf 9d86 c1be
-0.031015389 -0.6804679 -0.37798014

model_1/dense_2_1/Tensordot/MatMul f4 [3, 1]
00000000: 74b1 86bf 614d 0fbf fe71 71bf
-1.0522904 -0.55977446 -0.94314563

model_1/batch_normalization_2/FusedBatchNormV3;model_1/conv2d_1/Conv2D/ReadVariableOp;model_1/conv2d_1/Conv2D i1 [36, 5, 5, 6] scale=0.008429077 zero_point=0
00000000: 0c12 0aff 0bfe 1506 0cfc 0a05 050e 06f4
00000010: 07fd 07fd 0df6 0500 070a 03fa f101 0802
00000020: 0af7 03f6 0700 06fc 0500 05fe fafb 04fe
00000030: 01f7 07f5 03fd fef5 0c03 0a05 fe06 0af9
00000040: fb04 f801 0ef3 faf8 f205 00f4 fff6 eff7
00000050: 16ef fbf7 fbf7 11f0 fdf9 0702 11f1 03fc
00000060: 0002 06ed fc04 0204 0dfd 01f9 f5f8 17f7
00000070: 03fd 02fe 09e9 fef6 ff09 0eff f9fe 0904
00000080: 01fb 07f6 f6f2 03f7 fefc f1f5 0df7 0909
00000090: faf8 0afe f909 07fe ecec 0400 fcfd ebe9
000000a0: 0704 faec f8fc 0b07 f8f0 f6f5 0a09 fbf2
000000b0: f0ef 0300 0908 e7e6 0400 fef8 fcfa 0b05
000000c0: ff04 f5f8 080b 00fc f3f5 0908 f9f8 eff0
000000d0: 0805 f8fd 0005 0202 fe00 fe00 0908 02fd
000000e0: 0306 0608 f3f9 0702 0408 fd00 0404 0004
000000f0: f803 1a1c fdfa fc07 0202 f8f8 0809 0101
0.10114893 0.1517234 0.08429077 -0.008429077 0.09271985 -0.016858155 0.17701063 0.050574467
0.10114893 -0.03371631 0.08429077 0.042145386 0.042145386 0.118007086 0.050574467 -0.10114893
0.059003543 -0.025287233 0.059003543 -0.025287233 0.109578006 -0.08429077 0.042145386 0.0
0.059003543 0.08429077 0.025287233 -0.050574467 -0.12643616 0.008429077 0.06743262 0.016858155
0.08429077 -0.0758617 0.025287233 -0.08429077 0.059003543 0.0 0.050574467 -0.03371631
0.042145386 0.0 0.042145386 -0.016858155 -0.050574467 -0.042145386 0.03371631 -0.016858155
0.008429077 -0.0758617 0.059003543 -0.09271985 0.025287233 -0.025287233 -0.016858155 -0.09271985
0.10114893 0.025287233 0.08429077 0.042145386 -0.016858155 0.050574467 0.08429077 -0.059003543
-0.042145386 0.03371631 -0.06743262 0.008429077 0.118007086 -0.109578006 -0.050574467 -0.06743262
-0.118007086 0.042145386 0.0 -0.10114893 -0.008429077 -0.08429077 -0.14329432 -0.0758617
0.1854397 -0.14329432 -0.042145386 -0.0758617 -0.042145386 -0.0758617 0.14329432 -0.13486524
-0.025287233 -0.059003543 0.059003543 0.016858155 0.14329432 -0.12643616 0.025287233 -0.03371631
0.0 0.016858155 0.050574467 -0.16015247 -0.03371631 0.03371631 0.016858155 0.03371631
0.109578006 -0.025287233 0.008429077 -0.059003543 -0.09271985 -0.06743262 0.19386879 -0.0758617
0.025287233 -0.025287233 0.016858155 -0.016858155 0.0758617 -0.19386879 -0.016858155 -0.08429077
-0.008429077 0.0758617 0.118007086 -0.008429077 -0.059003543 -0.016858155 0.0758617 0.03371631
0.008429077 -0.042145386 0.059003543 -0.08429077 -0.08429077 -0.118007086 0.025287233 -0.0758617
-0.016858155 -0.03371631 -0.12643616 -0.09271985 0.109578006 -0.0758617 0.0758617 0.0758617
-0.050574467 -0.06743262 0.08429077 -0.016858155 -0.059003543 0.0758617 0.059003543 -0.016858155
-0.16858155 -0.16858155 0.03371631 0.0 -0.03371631 -0.025287233 -0.17701063 -0.19386879
0.059003543 0.03371631 -0.050574467 -0.16858155 -0.06743262 -0.03371631 0.09271985 0.059003543
-0.06743262 -0.13486524 -0.08429077 -0.09271985 0.08429077 0.0758617 -0.042145386 -0.118007086
-0.13486524 -0.14329432 0.025287233 0.0 0.0758617 0.06743262 -0.21072693 -0.21915601
0.03371631 0.0 -0.016858155 -0.06743262 -0.03371631 -0.050574467 0.09271985 0.042145386
-0.008429077 0.03371631 -0.09271985 -0.06743262 0.06743262 0.09271985 0.0 -0.03371631
-0.109578006 -0.09271985 0.0758617 0.06743262 -0.059003543 -0.06743262 -0.14329432 -0.13486524
0.06743262 0.042145386 -0.06743262 -0.025287233 0.0 0.042145386 0.016858155 0.016858155
-0.016858155 0.0 -0.016858155 0.0 0.0758617 0.06743262 0.016858155 -0.025287233
0.025287233 0.050574467 0.050574467 0.06743262 -0.109578006 -0.059003543 0.059003543 0.016858155
0.03371631 0.06743262 -0.025287233 0.0 0.03371631 0.03371631 0.0 0.03371631
-0.06743262 0.025287233 0.21915601 0.23601417 -0.025287233 -0.050574467 -0.03371631 0.059003543
0.016858155 0.016858155 -0.06743262 -0.06743262 0.06743262 0.0758617 0.008429077 0.008429077

model_1/batch_normalization_3/FusedBatchNormV3;model_1/conv2d_2/Conv2D/ReadVariableOp;model_1/conv2d_2/Conv2D i1 [36, 3, 3, 36] scale=0.0044323904 zero_point=0
00000000: ef09 03fc f6f6 ef02 edff 04fd 02ed f3e9
00000010: 11fd ef00 0102 14f5 05fd 050b f3f7 09f2
00000020: 0ef4 06ec f8fb f4f2 f200 fb06 eef4 05ff
00000030: faec ffec fef0 ea06 0305 10de fe03 030d
00000040: fff0 0401 1609 fdf3 f6fa eefb f108 fa03
00000050: f303 10f9 07fe eee9 13ee e8f9 12fa 120a
00000060: 07fc 2006 f308 fef4 ff00 05f1 fc08 fc01
00000070: f504 0103 f5f4 2703 ffff 03f8 fef9 00f3
00000080: 0dfe 1e02 f910 05f4 fffb 01ff 0703 fdfe
00000090: f604 0603 fa09 030a 040d 0fff fbfc feef
000000a0: 1407 fbf5 ff03 1a00 f801 0105 fcfa 05fe
000000b0: 00e5 f904 0009 ff0e 0006 04fe f5f7 240a
000000c0: 05fc 19f3 0aff f6fc fe09 1ff7 fd0f f5fa
000000d0: f9fe fc06 0c1b fa0d f60e faf8 fcfa 16f7
000000e0: 070a f7fd fe09 ecf8 11f3 fa06 f8fe 12f9
000000f0: f7fc fcf8 fdf5 1001 01f3 f603 e109 f807
-0.075350635 0.039891515 0.013297171 -0.017729562 -0.044323906 -0.044323906 -0.075350635 0.008864781
-0.08421542 -0.0044323904 0.017729562 -0.013297171 0.008864781 -0.08421542 -0.057621077 -0.10194498
0.075350635 -0.013297171 -0.075350635 0.0 0.0044323904 0.008864781 0.08864781 -0.048756294
0.022161953 -0.013297171 0.022161953 0.048756294 -0.057621077 -0.039891515 0.039891515 -0.062053464
0.062053464 -0.053188685 0.026594343 -0.08864781 -0.035459124 -0.022161953 -0.053188685 -0.062053464
-0.062053464 0.0 -0.022161953 0.026594343 -0.07978303 -0.053188685 0.022161953 -0.0044323904
-0.026594343 -0.08864781 -0.0044323904 -0.08864781 -0.008864781 -0.07091825 -0.09751259 0.026594343
0.013297171 0.022161953 0.07091825 -0.15070127 -0.008864781 0.013297171 0.013297171 0.057621077
-0.0044323904 -0.07091825 0.017729562 0.0044323904 0.09751259 0.039891515 -0.013297171 -0.057621077
-0.044323906 -0.026594343 -0.07978303 -0.022161953 -0.06648586 0.035459124 -0.026594343 0.013297171
-0.057621077 0.013297171 0.07091825 -0.031026732 0.031026732 -0.008864781 -0.07978303 -0.10194498
0.08421542 -0.07978303 -0.10637737 -0.031026732 0.07978303 -0.026594343 0.07978303 0.044323906
0.031026732 -0.017729562 0.1418365 0.026594343 -0.057621077 0.035459124 -0.008864781 -0.053188685
-0.0044323904 0.0 0.022161953 -0.06648586 -0.017729562 0.035459124 -0.017729562 0.0044323904
-0.048756294 0.017729562 0.0044323904 0.013297171 -0.048756294 -0.053188685 0.17286323 0.013297171
-0.0044323904 -0.0044323904 0.013297171 -0.035459124 -0.008864781 -0.031026732 0.0 -0.057621077
0.057621077 -0.008864781 0.13297172 0.008864781 -0.031026732 0.07091825 0.022161953 -0.053188685
-0.0044323904 -0.022161953 0.0044323904 -0.0044323904 0.031026732 0.013297171 -0.013297171 -0.008864781
-0.044323906 0.017729562 0.026594343 0.013297171 -0.026594343 0.039891515 0.013297171 0.044323906
0.017729562 0.057621077 0.06648586 -0.0044323904 -0.022161953 -0.017729562 -0.008864781 -0.075350635
0.08864781 0.031026732 -0.022161953 -0.048756294 -0.0044323904 0.013297171 0.11524215 0.0
-0.035459124 0.0044323904 0.0044323904 0.022161953 -0.017729562 -0.026594343 0.022161953 -0.008864781
0.0 -0.11967454 -0.031026732 0.017729562 0.0 0.039891515 -0.0044323904 0.062053464
0.0 0.026594343 0.017729562 -0.008864781 -0.048756294 -0.039891515 0.15956606 0.044323906
0.022161953 -0.017729562 0.11080976 -0.057621077 0.044323906 -0.0044323904 -0.044323906 -0.017729562
-0.008864781 0.039891515 0.1374041 -0.039891515 -0.013297171 0.06648586 -0.048756294 -0.026594343
-0.031026732 -0.008864781 -0.017729562 0.026594343 0.053188685 0.11967454 -0.026594343 0.057621077
-0.044323906 0.062053464 -0.026594343 -0.035459124 -0.017729562 -0.026594343 0.09751259 -0.039891515
0.031026732 0.044323906 -0.039891515 -0.013297171 -0.008864781 0.039891515 -0.08864781 -0.035459124
0.075350635 -0.057621077 -0.026594343 0.026594343 -0.035459124 -0.008864781 0.07978303 -0.031026732
-0.039891515 -0.017729562 -0.017729562 -0.035459124 -0.013297171 -0.048756294 0.07091825 0.0044323904
0.0044323904 -0.057621077 -0.044323906 0.013297171 -0.1374041 0.039891515 -0.035459124 0.031026732

model_1/batch_normalization_4/FusedBatchNormV3;model_1/conv2d_3/Conv2D/ReadVariableOp;model_1/conv2d_3/Conv2D i1 [72, 3, 3, 36] scale=0.0026996427 zero_point=0
00000000: eb12 2801 1f04 0ee5 f10d f0fb 02f8 1522
00000010: ef20 d3ef 10d8 e016 1dfa e213 e9d5 ea0d
00000020: d8ed 01d8 17f5 f400 22e4 13e5 0ae4 0b34
00000030: ebd7 1cef 1601 f51f 1ce5 1801 06f4 d6db
00000040: d3d2 1226 d9f8 03fe 152d 1313 0c0c fb0d
00000050: 1412 f406 f30f 10f7 042f f9f5 071d 2909
00000060: 242d 3b13 03f2 f219 ce0a 0401 f2d3 1bef
00000070: bf15 fce8 08fa f2ea d2ef e4fe f3ee f0e3
00000080: 01f2 dc04 dbf2 f206 0611 ee01 1e15 dbf0
00000090: 24cb 1efe c118 1d11 1102 01f1 e8f1 d6f8
000000a0: 19fc 0905 ebfe 0bf3 2703 03f3 0d03 0df3
000000b0: 1309 dd13 14d6 18d1 c311 e1ff 1603 f8e9
000000c0: f6e8 0433 f9ef fee9 11f8 26fa fbea 0823
000000d0: 0d17 f12a 0c04 0f1b 1917 07e6 fc1d 04eb
000000e0: dced efbd caee ea11 0d0a d70a 05e1 baf1
000000f0: fc0b f6f5 e7ea cdf7 19f4 0f0d 1b16 03e4
-0.056692496 0.04859357 0.107985705 0.0026996427 0.08368892 0.010798571 0.037794996 -0.07289035
-0.04049464 0.035095356 -0.043194283 -0.013498213 0.0053992853 -0.021597141 0.056692496 0.09178785
-0.045893926 0.086388566 -0.12148392 -0.045893926 0.043194283 -0.107985705 -0.086388566 0.05939214
0.078289635 -0.016197857 -0.08098928 0.05129321 -0.062091783 -0.116084635 -0.05939214 0.035095356
-0.107985705 -0.05129321 0.0026996427 -0.107985705 0.062091783 -0.02969607 -0.032395713 0.0
0.09178785 -0.07558999 0.05129321 -0.07289035 0.026996426 -0.07558999 0.02969607 0.14038143
-0.056692496 -0.11068535 0.07558999 -0.045893926 0.05939214 0.0026996427 -0.02969607 0.08368892
0.07558999 -0.07289035 0.064791426 0.0026996427 0.016197857 -0.032395713 -0.11338499 -0.09988678
-0.12148392 -0.124183565 0.04859357 0.10258642 -0.10528606 -0.021597141 0.008098928 -0.0053992853
0.056692496 0.12148392 0.05129321 0.05129321 0.032395713 0.032395713 -0.013498213 0.035095356
0.053992853 0.04859357 -0.032395713 0.016197857 -0.035095356 0.04049464 0.043194283 -0.024296785
0.010798571 0.12688321 -0.018897498 -0.02969607 0.018897498 0.078289635 0.11068535 0.024296785
0.09718714 0.12148392 0.15927891 0.05129321 0.008098928 -0.037794996 -0.037794996 0.06749107
-0.13498214 0.026996426 0.010798571 0.0026996427 -0.037794996 -0.12148392 0.07289035 -0.045893926
-0.17547677 0.056692496 -0.010798571 -0.064791426 0.021597141 -0.016197857 -0.037794996 -0.05939214
-0.124183565 -0.045893926 -0.07558999 -0.0053992853 -0.035095356 -0.04859357 -0.043194283 -0.078289635
0.0026996427 -0.037794996 -0.09718714 0.010798571 -0.09988678 -0.037794996 -0.037794996 0.016197857
0.016197857 0.045893926 -0.04859357 0.0026996427 0.08098928 0.056692496 -0.09988678 -0.043194283
0.09718714 -0.14308107 0.08098928 -0.0053992853 -0.17007749 0.064791426 0.078289635 0.045893926
0.045893926 0.0053992853 0.0026996427 -0.04049464 -0.064791426 -0.04049464 -0.11338499 -0.021597141
0.06749107 -0.010798571 0.024296785 0.013498213 -0.056692496 -0.0053992853 0.02969607 -0.035095356
0.10528606 0.008098928 0.008098928 -0.035095356 0.035095356 0.008098928 0.035095356 -0.035095356
0.05129321 0.024296785 -0.094487496 0.05129321 0.053992853 -0.11338499 0.064791426 -0.12688321
-0.1646782 0.045893926 -0.08368892 -0.0026996427 0.05939214 0.008098928 -0.021597141 -0.062091783
-0.026996426 -0.064791426 0.010798571 0.13768178 -0.018897498 -0.045893926 -0.0053992853 -0.062091783
0.045893926 -0.021597141 0.10258642 -0.016197857 -0.013498213 -0.05939214 0.021597141 0.094487496
0.035095356 0.062091783 -0.04049464 0.11338499 0.032395713 0.010798571 0.04049464 0.07289035
0.06749107 0.062091783 0.018897498 -0.07019071 -0.010798571 0.078289635 0.010798571 -0.056692496
-0.09718714 -0.05129321 -0.045893926 -0.18087606 -0.1457807 -0.04859357 -0.05939214 0.045893926
0.035095356 0.026996426 -0.11068535 0.026996426 0.013498213 -0.08368892 -0.18897499 -0.04049464
-0.010798571 0.02969607 -0.026996426 -0.02969607 -0.06749107 -0.05939214 -0.13768178 -0.024296785
0.06749107 -0.032395713 0.04049464 0.035095356 0.07289035 0.05939214 0.008098928 -0.07558999

model_1/batch_normalization_5/FusedBatchNormV3;model_1/conv2d_4/Conv2D/ReadVariableOp;model_1/conv2d_4/Conv2D i1 [72, 3, 3, 72] scale=0.0028362898 zero_point=0
00000000: 10fb d7d0 0107 fa07 f4df f206 de07 02fb
00000010: 150b f506 07f5 ea01 0705 0100 d6e6 eaf9
00000020: faf7 fe2a ec11 1014 0306 20f7 f9d9 f518
00000030: 0d27 ec02 11df 13dd 0116 f506 2209 011b
00000040: e51d f7fb 0007 f3e8 01ff dedb 041c e7ff
00000050: fecb e4f0 eee9 04e1 0b04 dafe f3fd f422
00000060: 0611 0c0c cdeb fdf1 faf9 1b23 d70b f707
00000070: fbf6 0e13 0703 1503 0d40 d8f6 06ef 02f3
00000080: fb09 f71a 1716 e715 e41c 0afd f5fa ebfa
00000090: 1803 e7ce f10d e1e5 ffaf e1f7 e1d0 f315
000000a0: 27f7 0101 08e6 d218 f20c 0910 bad3 f50e
000000b0: f7f3 1a27 dc14 f90a 00f7 f50c 1806 23fe
000000c0: 073d e9eb 03fe f0cf 1001 e601 250d 140e
000000d0: f40b cbfe 1bdc 07f0 07ff f7f4 1a2d ebf7
000000e0: f9fa dd13 ff09 f005 17e3 080f ef05 fce9
000000f0: fbfc 12de 27f0 e2f3 09ea e81b 1be8 fe00
0.045380637 -0.014181449 -0.11628788 -0.13614191 0.0028362898 0.019854028 -0.017017739 0.019854028
-0.034035478 -0.09359756 -0.039708056 0.017017739 -0.096433856 0.019854028 0.0056725796 -0.014181449
0.059562087 0.031199187 -0.031199187 0.017017739 0.019854028 -0.031199187 -0.062398374 0.0028362898
0.019854028 0.014181449 0.0028362898 0.0 -0.119124174 -0.07374354 -0.062398374 -0.019854028
-0.017017739 -0.02552661 -0.0056725796 0.119124174 -0.056725796 0.048216928 0.045380637 0.056725796
0.008508869 0.017017739 0.090761274 -0.02552661 -0.019854028 -0.110615306 -0.031199187 0.068070956
0.03687177 0.110615306 -0.056725796 0.0056725796 0.048216928 -0.09359756 0.053889506 -0.09927014
0.0028362898 0.062398374 -0.031199187 0.017017739 0.096433856 0.02552661 0.0028362898 0.076579824
-0.076579824 0.082252406 -0.02552661 -0.014181449 0.0 0.019854028 -0.03687177 -0.068070956
0.0028362898 -0.0028362898 -0.096433856 -0.104942724 0.011345159 0.07941611 -0.07090724 -0.0028362898
-0.0056725796 -0.15032336 -0.07941611 -0.045380637 -0.05105322 -0.06523467 0.011345159 -0.08792499
0.031199187 0.011345159 -0.10777901 -0.0056725796 -0.03687177 -0.008508869 -0.034035478 0.096433856
0.017017739 0.048216928 0.034035478 0.034035478 -0.14465079 -0.059562087 -0.008508869 -0.042544346
-0.017017739 -0.019854028 0.076579824 0.09927014 -0.11628788 0.031199187 -0.02552661 0.019854028
-0.014181449 -0.028362898 0.039708056 0.053889506 0.019854028 0.008508869 0.059562087 0.008508869
0.03687177 0.18152255 -0.11345159 -0.028362898 0.017017739 -0.048216928 0.0056725796 -0.03687177
-0.014181449 0.02552661 -0.02552661 0.07374354 0.06523467 0.062398374 -0.07090724 0.059562087
-0.07941611 0.07941611 0.028362898 -0.008508869 -0.031199187 -0.017017739 -0.059562087 -0.017017739
0.068070956 0.008508869 -0.07090724 -0.14181449 -0.042544346 0.03687177 -0.08792499 -0.076579824
-0.0028362898 -0.22973947 -0.08792499 -0.02552661 -0.08792499 -0.13614191 -0.03687177 0.059562087
0.110615306 -0.02552661 0.0028362898 0.0028362898 0.022690319 -0.07374354 -0.13046934 0.068070956
-0.039708056 0.034035478 0.02552661 0.045380637 -0.19854029 -0.12763304 -0.031199187 0.039708056
-0.02552661 -0.03687177 0.07374354 0.110615306 -0.10210644 0.056725796 -0.019854028 0.028362898
0.0 -0.02552661 -0.031199187 0.034035478 0.068070956 0.017017739 0.09927014 -0.0056725796
0.019854028 0.17301367 -0.06523467 -0.059562087 0.008508869 -0.0056725796 -0.045380637 -0.1389782
0.045380637 0.0028362898 -0.07374354 0.0028362898 0.104942724 0.03687177 0.056725796 0.039708056
-0.034035478 0.031199187 -0.15032336 -0.0056725796 0.076579824 -0.10210644 0.019854028 -0.045380637
0.019854028 -0.0028362898 -0.02552661 -0.034035478 0.07374354 0.12763304 -0.059562087 -0.02552661
-0.019854028 -0.017017739 -0.09927014 0.053889506 -0.0028362898 0.02552661 -0.045380637 0.014181449
0.06523467 -0.082252406 0.022690319 0.042544346 -0.048216928 0.014181449 -0.011345159 -0.06523467
-0.014181449 -0.011345159 0.05105322 -0.096433856 0.110615306 -0.045380637 -0.08508869 -0.03687177
0.02552661 -0.062398374 -0.068070956 0.076579824 0.076579824 -0.068070956 -0.0056725796 0.0

model_1/batch_normalization_6/FusedBatchNormV3;model_1/conv2d_5/Conv2D/ReadVariableOp;model_1/conv2d_5/Conv2D i1 [96, 3, 3, 72] scale=0.0022459782 zero_point=0
00000000: ffff ed17 f7f5 f9f5 0204 070c f608 f9f4
00000010: 05ed f2f4 08f7 e915 12e5 1111 f5e8 fb00
00000020: f807 e70c fa0d 0614 dffe eaf3 fb05 0403
00000030: f2e9 ecf5 e9e1 e1e7 1011 06f0 0e0e 16f0
00000040: ff0b f5f7 0d0d 08ff fd06 f211 06f8 01f0
00000050: 0801 0508 fb04 0002 11f9 f3ef fef8 fb15
00000060: feff 0af5 f90e 0506 0605 f4f0 fffd fd09
00000070: e9fb 0009 0e18 ff09 f0f0 f5f4 f8ed fcfd
00000080: 0212 01fd 12f8 09fe 0609 fd00 0f0a f5f8
00000090: d2e4 f81e eefa 0ae2 07f7 0afc 07f7 2112
000000a0: 330f 04d1 03e5 dff7 06ee 1ade e51f 11ea
000000b0: fc16 110b 0300 e7ff d8ff 061f 1109 ff0b
000000c0: f9d0 db0c 0603 07ec e8fd 1702 0fe7 f9fb
000000d0: f80c f629 fe11 f900 1302 f2f7 0604 0902
000000e0: ff04 03fb f111 fa06 f7f9 f8ff 0614 0201
000000f0: 09f5 0300 1000 0c11 05f4 050a f607 07fc
-0.0022459782 -0.0022459782 -0.042673588 0.051657498 -0.020213803 -0.02470576 -0.015721848 -0.02470576
0.0044919564 0.008983913 0.015721848 0.026951738 -0.022459783 0.017967826 -0.015721848 -0.026951738
0.011229891 -0.042673588 -0.031443696 -0.026951738 0.017967826 -0.020213803 -0.051657498 0.047165543
0.040427607 -0.06064141 0.03818163 0.03818163 -0.02470576 -0.053903475 -0.011229891 0.0
-0.017967826 0.015721848 -0.056149457 0.026951738 -0.013475869 0.029197717 0.013475869 0.044919565
-0.07411728 -0.0044919564 -0.04941152 -0.029197717 -0.011229891 0.011229891 0.008983913 0.0067379344
-0.031443696 -0.051657498 -0.044919565 -0.02470576 -0.051657498 -0.069625326 -0.069625326 -0.056149457
0.03593565 0.03818163 0.013475869 -0.03593565 0.031443696 0.031443696 0.04941152 -0.03593565
-0.0022459782 0.02470576 -0.02470576 -0.020213803 0.029197717 0.029197717 0.017967826 -0.0022459782
-0.0067379344 0.013475869 -0.031443696 0.03818163 0.013475869 -0.017967826 0.0022459782 -0.03593565
0.017967826 0.0022459782 0.011229891 0.017967826 -0.011229891 0.008983913 0.0 0.0044919564
0.03818163 -0.015721848 -0.029197717 -0.03818163 -0.0044919564 -0.017967826 -0.011229891 0.047165543
-0.0044919564 -0.0022459782 0.022459783 -0.02470576 -0.015721848 0.031443696 0.011229891 0.013475869
0.013475869 0.011229891 -0.026951738 -0.03593565 -0.0022459782 -0.0067379344 -0.0067379344 0.020213803
-0.051657498 -0.011229891 0.0 0.020213803 0.031443696 0.053903475 -0.0022459782 0.020213803
-0.03593565 -0.03593565 -0.02470576 -0.026951738 -0.017967826 -0.042673588 -0.008983913 -0.0067379344
0.0044919564 0.040427607 0.0022459782 -0.0067379344 0.040427607 -0.017967826 0.020213803 -0.0044919564
0.013475869 0.020213803 -0.0067379344 0.0 0.033689674 0.022459783 -0.02470576 -0.017967826
-0.103314996 -0.06288739 -0.017967826 0.06737935 -0.040427607 -0.013475869 0.022459783 -0.06737935
0.015721848 -0.020213803 0.022459783 -0.008983913 0.015721848 -0.020213803 0.07411728 0.040427607
0.11454489 0.033689674 0.008983913 -0.10556097 0.0067379344 -0.06064141 -0.07411728 -0.020213803
0.013475869 -0.040427607 0.058395434 -0.07636326 -0.06064141 0.069625326 0.03818163 -0.04941152
-0.008983913 0.04941152 0.03818163 0.02470576 0.0067379344 0.0 -0.056149457 -0.0022459782
-0.08983913 -0.0022459782 0.013475869 0.069625326 0.03818163 0.020213803 -0.0022459782 0.02470576
-0.015721848 -0.10780695 -0.08310119 0.026951738 0.013475869 0.0067379344 0.015721848 -0.044919565
-0.053903475 -0.0067379344 0.051657498 0.0044919564 0.033689674 -0.056149457 -0.015721848 -0.011229891
-0.017967826 0.026951738 -0.022459783 0.09208511 -0.0044919564 0.03818163 -0.015721848 0.0
0.042673588 0.0044919564 -0.031443696 -0.020213803 0.013475869 0.008983913 0.020213803 0.0044919564
-0.0022459782 0.008983913 0.0067379344 -0.011229891 -0.033689674 0.03818163 -0.013475869 0.013475869
-0.020213803 -0.015721848 -0.017967826 -0.0022459782 0.013475869 0.044919565 0.0044919564 0.0022459782
0.020213803 -0.02470576 0.0067379344 0.0 0.03593565 0.0 0.026951738 0.03818163
0.011229891 -0.026951738 0.011229891 0.022459783 -0.022459783 0.015721848 0.015721848 -0.008983913

model_1/batch_normalization_7/FusedBatchNormV3;model_1/conv2d_6/Conv2D/ReadVariableOp;model_1/conv2d_6/Conv2D i1 [96, 3, 3, 96] scale=0.0049879346 zero_point=0
00000000: e703 f4f2 fb0c 00f4 f6e9 fc0e f0f7 0316
00000010: fcfd 0603 eefd ff11 0bfc 0e11 eaf6 0bfa
00000020: fb08 0cfc e5ed e9f5 200e 130d 0902 f1e8
00000030: 11fc 03e6 1d08 0afd ecfb 0406 1af8 f5f7
00000040: e7fd fb0b 0812 0de9 21fc 120a f301 0b06
00000050: 1200 050b fbe4 0f13 f6e0 0717 ede1 27ed
00000060: eeff f9ef 020f f4fa 00fa 000c 05f5 0115
00000070: 00eb 0313 ff13 07ff 010a 12fa f201 f6f3
00000080: 01ea 0ef0 0002 f3f7 0afc 020a 0211 f1ea
00000090: 0c01 f1fa 23f7 06fa fdfe 0003 0a06 0a0c
000000a0: f6eb ff05 f71c 0bfb 0bf6 0dfe f8f7 1001
000000b0: f8fc 190b 04ea 0901 04f0 0d07 f2eb 14f2
000000c0: e4fd ecfe fc1d faf3 f9ec f105 f5f9 0914
000000d0: fff8 0204 f103 0311 03fc 0c00 eef6 fbf1
000000e0: f700 0bfa 01f4 eef1 220b 1015 fdfe f9e7
000000f0: 11fe 0ae5 1e04 13f4 f4f4 fe0c 17fc fffb
-0.12469836 0.014963804 -0.059855215 -0.06983109 -0.024939673 0.059855215 0.0 -0.059855215
-0.049879346 -0.1147225 -0.019951738 0.06983109 -0.07980695 -0.04489141 0.014963804 0.109734565
-0.019951738 -0.014963804 0.029927608 0.014963804 -0.08978282 -0.014963804 -0.0049879346 0.08479489
0.054867283 -0.019951738 0.06983109 0.08479489 -0.109734565 -0.049879346 0.054867283 -0.029927608
-0.024939673 0.039903477 0.059855215 -0.019951738 -0.13467424 -0.09477076 -0.1147225 -0.054867283
0.1596139 0.06983109 0.09477076 0.06484315 0.04489141 0.009975869 -0.07481902 -0.11971043
0.08479489 -0.019951738 0.014963804 -0.1296863 0.1446501 0.039903477 0.049879346 -0.014963804
-0.09975869 -0.024939673 0.019951738 0.029927608 0.1296863 -0.039903477 -0.054867283 -0.04489141
-0.12469836 -0.014963804 -0.024939673 0.054867283 0.039903477 0.08978282 0.06484315 -0.1147225
0.16460185 -0.019951738 0.08978282 0.049879346 -0.06484315 0.0049879346 0.054867283 0.029927608
0.08978282 0.0 0.024939673 0.054867283 -0.024939673 -0.13966218 0.07481902 0.09477076
-0.049879346 -0.1596139 0.034915544 0.1147225 -0.09477076 -0.15462597 0.19452944 -0.09477076
-0.08978282 -0.0049879346 -0.034915544 -0.08479489 0.009975869 0.07481902 -0.059855215 -0.029927608
0.0 -0.029927608 0.0 0.059855215 0.024939673 -0.054867283 0.0049879346 0.104746625
0.0 -0.104746625 0.014963804 0.09477076 -0.0049879346 0.09477076 0.034915544 -0.0049879346
0.0049879346 0.049879346 0.08978282 -0.029927608 -0.06983109 0.0049879346 -0.049879346 -0.06484315
0.0049879346 -0.109734565 0.06983109 -0.07980695 0.0 0.009975869 -0.06484315 -0.04489141
0.049879346 -0.019951738 0.009975869 0.049879346 0.009975869 0.08479489 -0.07481902 -0.109734565
0.059855215 0.0049879346 -0.07481902 -0.029927608 0.17457771 -0.04489141 0.029927608 -0.029927608
-0.014963804 -0.009975869 0.0 0.014963804 0.049879346 0.029927608 0.049879346 0.059855215
-0.049879346 -0.104746625 -0.0049879346 0.024939673 -0.04489141 0.13966218 0.054867283 -0.024939673
0.054867283 -0.049879346 0.06484315 -0.009975869 -0.039903477 -0.04489141 0.07980695 0.0049879346
-0.039903477 -0.019951738 0.12469836 0.054867283 0.019951738 -0.109734565 0.04489141 0.0049879346
0.019951738 -0.07980695 0.06484315 0.034915544 -0.06983109 -0.104746625 0.09975869 -0.06983109
-0.13966218 -0.014963804 -0.09975869 -0.009975869 -0.019951738 0.1446501 -0.029927608 -0.06484315
-0.034915544 -0.09975869 -0.07481902 0.024939673 -0.054867283 -0.034915544 0.04489141 0.09975869
-0.0049879346 -0.039903477 0.009975869 0.019951738 -0.07481902 0.014963804 0.014963804 0.08479489
0.014963804 -0.019951738 0.059855215 0.0 -0.08978282 -0.049879346 -0.024939673 -0.07481902
-0.04489141 0.0 0.054867283 -0.029927608 0.0049879346 -0.059855215 -0.08978282 -0.07481902
0.16958977 0.054867283 0.07980695 0.104746625 -0.014963804 -0.009975869 -0.034915544 -0.12469836
0.08479489 -0.009975869 0.049879346 -0.13467424 0.14963804 0.019951738 0.09477076 -0.059855215
-0.059855215 -0.059855215 -0.009975869 0.059855215 0.1147225 -0.019951738 -0.0049879346 -0.024939673

model_1/batch_normalization_8/FusedBatchNormV3;model_1/conv2d_7/Conv2D/ReadVariableOp;model_1/conv2d_7/Conv2D f4 [3, 1, 1, 96]
00000000: e512 57bd 33fc 5dbe 162a 7a3d 5df2 82bc
00000010: e9db 9ebd bc46 833d badf 60bd 11f4 4d3d
00000020: d3c6 3d3d 7eda 633d 5a7b 2f3d 10f1 953d
00000030: 4622 5a3e e74f 523d 727a 8dbd 616d f13d
00000040: 1702 a5bd 7e1c 13be 63c9 46bc 6035 0f3d
00000050: 5a2c 7abe 35f2 1cbe 0329 ddbd 1b89 843d
00000060: dd81 03be e188 88bd 02dd e83d 0b15 373d
00000070: 41f0 99bd a37e e1bc 8457 023e 1976 24bc
00000080: 9642 4ebc b572 853d c826 913d a81c bbbc
00000090: 7694 2ebd 673b c53c c9bc 0fbe 63a9 913d
000000a0: 5784 e53d c177 d73d 2e90 ab3c 6ce4 853d
000000b0: 5c53 e73d a4a3 1bbe b1a2 f2bc 9e53 3d3d
000000c0: 9d8c 523d c73b ca3d 5949 1e3e 78d1 05bd
000000d0: cc4b 60be d82d b93b 1e16 753e cd53 8dbd
000000e0: 9e12 3c3d 4dfb 61be bb0a 8ebd 8647 8bbe
000000f0: 7ce6 38be 7034 f5bd 5e63 8f3d d856 cd3d
00000100: 8aaf fdbe 11ec 58be ac4b c63c 1361 c4bd
00000110: 1c41 d43c 02b7 85bc be6a 0ebe cfa2 4d3c
00000120: dd1f b6bd 459e fa3c b3b6 593d ab6b ebbd
00000130: 41ce e8bd ee68 42be 2b6f b03c a798 b5bd
00000140: 1d24 3ebd 7a9e 333e 3089 d43c 3459 103e
00000150: 953f 7cbd 62af b6bd 1570 cbbc eb49 e6bd
00000160: 7b6b b53d 2fcd f93c 83f4 ba3d 2a5e 433d
00000170: ed68 3bbd 422b ec3d 06c2 183e d4da e43d
00000180: 2f4e 973d 9a49 503e eda3 253d c0be 293d
00000190: 70c8 f43c bbb4 ddbc 888f a13d 14ae debc
000001a0: be86 6fbc 4e9b 5dbe ae89 0abe 5cfb 9dbb
000001b0: 0623 2c3e 6039 44be 84c5 253d 7ce7 45be
000001c0: 7b45 e93d c2e2 d5bd 7793 8b3c f30d f5bc
000001d0: c804 72bd 0475 c4bd 2921 a73c db4f ef3b
000001e0: 8411 843c 2115 563d 4ec5 25be 31d1 94bd
000001f0: c42a cf3c fa73 95bd cd36 d8ba 7dd7 06bb
00000200: 8b1f 36bc 2870 0c3e 90eb 92bc 33a6 17bd
00000210: 36af 82bc 81a0 c63d 3617 763d fead c4bd
00000220: eb29 9ebd 7d51 2e3c 405c 94be ad38 dbbd
00000230: 6f6d 62bd 158d ff3d 82cc 033d 449b f63b
00000240: 68b3 e2bd 75f5 40bd 359f 013e bcb8 913d
00000250: b075 2ebe 0b47 633c 8dfc bdbd e13b 9e3d
00000260: 2794 59bc ec55 02be fb56 9f3d f41d 203d
00000270: c9df 34bd aad9 013e c555 48bd bcf8 29be
00000280: a6a3 ffbd c2de 083e f4c5 6dbe 56f1 11be
00000290: ef3b fe3c 7ae7 32bd 087d 34be c9d8 e7bd
000002a0: ea8d 8c3c ffd6 14bd 7ba0 b53d 26a0 18be
000002b0: 4f16 943d 9b38 2ebe b20b 153e 51fa 9c3d
000002c0: 4b9c de3d 4cd1 373e 5784 04bc 235f 003d
000002d0: 1cea 9f3d c6fe 9e3d 6f6b 323d c73c 773d
000002e0: b9e2 1ebe 421e c43c 5f0d 10be d4f9 c0bd
000002f0: 3e1d e33c ce1f 31bd 32ff 8bbd 684b 80bc
00000300: 97fd 29bc 1570 6fbd 3200 7bbe 71f3 bfbc
00000310: 9de9 2b3d 7d7b 2abc 6a9d c7bc 053d 08bd
00000320: 9a2e 81bd bbbf 083b a5db 433d d576 40bd
00000330: dfd3 103d 3b2c 61bc d057 3b3d b794 46bd
00000340: fb39 53bc b965 cd3e eec9 033e 27ab 3a3d
00000350: 653b bc3d cd0a 77be 5e91 0c3d d550 65be
00000360: 8f18 a43c 4258 963c 3ecf e03a 2eb1 88bb
00000370: bf3e 2d3d 4dc5 013d 883c d93c b3ec 83be
00000380: 4748 5dbe d2ff c9be 4a23 10be b826 7b3d
00000390: 47a8 1c3e 1e32 14be 207f e939 c504 30bc
000003a0: 4c16 aabc c8cd 04bd fcf5 05bd 7e32 bc3c
000003b0: 1322 fa3d cf2b ab3c 01c7 163e 6931 963d
000003c0: adbe 0b3d 0d05 2ebc 8b54 a0be aba4 9abe
000003d0: dbd4 923e 55b7 9e3b a23c 93bd e639 8bbb
000003e0: aab9 99be e0b8 cdbc 97d0 22bc 4585 dc39
000003f0: 3caa d33d 823c 933b faa3 c8bc e187 573c
-0.052508254 -0.21678238 0.061075293 -0.015984708 -0.07756788 0.06409976 -0.054900862 0.050281588
0.04633219 0.055628292 0.042842247 0.0732137 0.21302137 0.051345732 -0.0690812 0.117884405
-0.08057039 -0.14366338 -0.012132975 0.03496301 -0.24430981 -0.1532677 -0.10798838 0.06471463
-0.12842508 -0.066667326 0.11370279 0.044697803 -0.07516528 -0.027526205 0.12728697 -0.010037922
-0.0125891175 0.06516019 0.07087475 -0.022840813 -0.042622052 0.024076177 -0.1403686 0.07112386
0.112068824 0.10520888 0.020942774 0.06537709 0.112951964 -0.15199143 -0.029618593 0.04622232
0.05140363 0.09874683 0.15457667 -0.032670468 -0.21903914 0.005651217 0.23934218 -0.06900749
0.045916192 -0.2206852 -0.069356404 -0.27203006 -0.18056673 -0.11972892 0.07001375 0.1002633
-0.49547988 -0.21183802 0.024206005 -0.09588828 0.025909953 -0.016322616 -0.13907906 0.012551024
-0.08892796 0.030593047 0.05315275 -0.114951454 -0.11367465 -0.1898534 0.021537384 -0.08867007
-0.04642116 0.17540923 0.025944322 0.14096528 -0.061584074 -0.0892017 -0.024833718 -0.112445675
0.08858391 0.030493347 0.09128668 0.047697224 -0.045754362 0.11531688 0.14917764 0.11174551
0.07387959 0.20340577 0.040439535 0.04144168 0.029880732 -0.027063718 0.078887045 -0.027182616
-0.014619527 -0.21641275 -0.13529083 -0.004821224 0.16810235 -0.19162512 0.04047157 -0.19326586
0.113902055 -0.10443641 0.01703809 -0.029913878 -0.05908659 -0.095926315 0.020401554 0.0073032207
0.016121633 0.052266244 -0.16188547 -0.072664626 0.025288947 -0.072975114 -0.0016495824 -0.0020575218
-0.011115919 0.13714659 -0.01793459 -0.037023734 -0.015952688 0.096985824 0.06008073 -0.09603499
-0.07722839 0.0106395455 -0.2897663 -0.107041694 -0.055280145 0.12478081 0.032177456 0.0075258333
-0.11069375 -0.047109086 0.12658389 0.071153134 -0.17037082 0.013871918 -0.09276686 0.07726265
-0.013279951 -0.12728089 0.07780262 0.039091066 -0.04415873 0.12680689 -0.04890992 -0.16598791
-0.12482385 0.13366225 -0.23220044 -0.14252219 0.031034438 -0.043677785 -0.1762582 -0.11320645
0.017157514 -0.03633785 0.088685 -0.14904842 0.072308175 -0.17013781 0.14555243 0.076649316
0.10869654 0.17950934 -0.008088193 0.03134073 0.07808325 0.07763438 0.043559488 0.060360696
-0.15516175 0.02394021 -0.140676 -0.09422651 0.027723905 -0.043243222 -0.06835784 -0.015660957
-0.010375402 -0.0584565 -0.24511793 -0.023431512 0.041970838 -0.010405418 -0.024367053 -0.033261318
-0.06307717 0.0020866233 0.04781689 -0.046988327 0.035358306 -0.0137434555 0.04573804 -0.04848167
-0.012892242 0.4011667 0.12869999 0.04557338 0.09191016 -0.24125214 0.03431832 -0.22394116
0.020031242 0.018352631 0.0017151607 -0.004171512 0.042296167 0.0316823 0.026518121 -0.25766525
-0.21609603 -0.39452988 -0.14075962 0.061316222 0.15298568 -0.14472243 0.0004453594 -0.010743325
-0.020762585 -0.03242281 -0.032705292 0.022973295 0.122135304 0.020894913 0.14724351 0.07333643
0.03411739 -0.010621321 -0.313145 -0.30203757 0.2867802 0.004843632 -0.07189299 -0.0042488454
-0.30024463 -0.02511257 -0.009937427 0.00042060963 0.10335204 0.004493297 -0.024492253 0.013154955

model_1/activation_1/Relu;model_1/batch_normalization_2/FusedBatchNormV3;model_1/batch_normalization_3/FusedBatchNormV3;model_1/conv2d_2/Conv2D/ReadVariableOp;model_1/conv2d_2/Conv2D;model_1/conv2d_1/Conv2D/ReadVariableOp;model_1/conv2d_1/Conv2D f4 [36]
00000000: 8477 db3f 4c33 283f 74fb 133f f1d0 8b3f
00000010: e339 0cbf 96e7 3a3e 52d8 423f 37f3 a3bf
00000020: c815 a6bf 0047 6d3c 02b0 3f3e c4c9 b5be
00000030: bfdb 9d3f 2283 593e 01f5 dcbf 9871 16be
00000040: 020c 0940 19f8 f53e 04db 4b3e 9bc3 59bf
00000050: c0fc ca3e ed69 8a3f e830 03bf a0b7 c4bb
00000060: c0a9 ccbc 56b3 543f ea4f 933f 09ef ad3e
00000070: b9c9 223f b9b3 08bf 22b9 e0be d03a 1dbd
00000080: d821 7bbe 9a8b d43f 78fe 18be a1d5 34bf
1.7145848 0.6570327 0.5780556 1.0923139 -0.5477583 0.18252406 0.7611133 -1.2808598
-1.2975397 0.01448226 0.18719485 -0.35505497 1.2332686 0.2124143 -1.7262269 -0.1469177
2.141358 0.48040846 0.19907767 -0.85064095 0.39645958 1.0813576 -0.512465 -0.006003335
-0.024983287 0.83086145 1.1508763 0.33971432 0.63589054 -0.53399235 -0.43891245 -0.038386166
-0.24524629 1.6605103 -0.14940822 -0.7063847

model_1/activation_2/Relu;model_1/batch_normalization_3/FusedBatchNormV3;model_1/conv2d_2/Conv2D/ReadVariableOp;model_1/conv2d_2/Conv2D f4 [36]
00000000: 4c6a ce3f b73c 0540 3e3d df3f 5a66 883f
00000010: c2b4 343f 3da5 1040 fc31 d6bd 493f b73f
00000020: 733a c53f 2ed7 aa3e 79e6 e93e 9841 10bf
00000030: df79 3640 5009 7ebf 2e7f 943f 56f3 903f
00000040: 6b80 753f 800b 8abd a8ed e33f dc17 d33e
00000050: 2a7a a03f 68a8 cb3f 39cc f93f 7044 b63e
00000060: 2de7 763f f451 1d40 3c5c c6be 73ec 333f
00000070: 683b 843e 242b 583f b0de b7bc a013 e0bf
00000080: 8252 d23f caad 6e3f 13bf 1a3f 8669 3e3f
1.6126189 2.0818307 1.7440565 1.0656235 0.70588315 2.2600853 -0.104587525 1.4316188
1.5408462 0.33367294 0.4568365 -0.5635009 2.8511884 -0.9923296 1.1601312 1.132426
0.95899075 -0.06740475 1.7806902 0.4122914 1.2537282 1.5910769 1.9515449 0.3559909
0.96446496 2.458127 -0.38742244 0.7028267 0.25826573 0.8444083 -0.022445053 -1.7505989
1.6431429 0.9323393 0.60447806 0.74379766

model_1/activation_3/Relu;model_1/batch_normalization_4/FusedBatchNormV3;model_1/batch_normalization_5/FusedBatchNormV3;model_1/conv2d_4/Conv2D/ReadVariableOp;model_1/conv2d_4/Conv2D;model_1/conv2d_3/Conv2D/ReadVariableOp;model_1/conv2d_3/Conv2D f4 [72]
00000000: 4ea5 533f 71c9 773f 1041 093d 1163 403f
00000010: d76f 8e3f 7075 5c3f 1573 0c3f 9ba3 693f
00000020: 0070 d13e e26c 453f ecf4 fe3f 1b73 4c3f
00000030: d2c5 1ebf ee81 573f d38d 193f aa96 cf3f
00000040: 90d7 70bf 14d1 66bf cca8 64bf 2136 3a3f
00000050: f15d 22bf 397a ff3e b256 0a40 4ccf 3abe
00000060: 7477 0240 203c 693c dc26 963f 7761 0c3f
00000070: 7a85 8a3f e67c a03f f63e 34bf ca5d 51bf
00000080: 7d90 2fbf d0be 6d3d 0895 b3bf ff4a 483f
00000090: 62ad 18bf 386d 153f c87f 983f 70b0 893d
000000a0: f974 103f ace2 803f 287e 0bbe 244b 61bd
000000b0: ccb2 5a3e 5c21 593e 8460 00be 5075 9dbf
000000c0: b9a4 62bf 2467 0140 54e2 a93f 3cc2 0bbf
000000d0: 64cb 90bf bc69 bb3f 1603 133f 032a 613f
000000e0: 1948 c0be a807 993e b1f5 103f b544 c53f
000000f0: 3a2b 0840 48a9 44bf e826 853f 400c 863c
00000100: 5c9b b73f 2ece 703f 3472 a93f 70ec 883f
00000110: cf68 943f b7fc 0340 e87a e4be 18e1 043e
0.8267411 0.9679175 0.033509314 0.75151163 1.1127881 0.86116695 0.548631 0.9126527
0.40905762 0.77119267 1.9918494 0.79863137 -0.620206 0.8418263 0.5998203 1.6217854
-0.9407892 -0.9016278 -0.89320064 0.72738844 -0.63424593 0.49897936 2.1615415 -0.1824314
2.0385408 0.014235526 1.1730609 0.5483622 1.0821984 1.2538116 -0.7040857 -0.81783736
-0.68579847 0.0580433 -1.4029856 0.78239435 -0.5963956 0.5836978 1.1913996 0.06723106
0.56428486 1.0069175 -0.13622344 -0.0550033 0.21357268 0.21204132 -0.12536818 -1.2301426
-0.88532597 2.0219202 1.3272195 -0.54593253 -1.131207 1.4641643 0.57426584 0.8795473
-0.37555006 0.29888654 0.56624895 1.5411593 2.1276383 -0.768208 1.0402498 0.016363263
1.4344287 0.94064605 1.3237977 1.0697155 1.1594485 2.0622995 -0.4462502 0.12976491

model_1/activation_4/Relu;model_1/batch_normalization_5/FusedBatchNormV3;model_1/conv2d_4/Conv2D/ReadVariableOp;model_1/conv2d_4/Conv2D f4 [72]
00000000: b0c6 4e3d 48a2 9b3d 0f69 fabe 9b2e 31be
00000010: 51b3 0bbf 7ce8 fc3e 6417 533e e341 c33e
00000020: 77c6 a1be 08ed 3c3f 6c4d f93d 5a92 723f
00000030: fa30 c53e 8851 04bc 18f4 0abe 2e58 13bf
00000040: 068c b3be 3b89 063f e204 0c3f 0053 5bbc
00000050: 9a0b d5be f840 433f fc19 6b3f 206c 37bd
00000060: 1e8e a93f 6580 cbbe e349 9c3f 7739 793f
00000070: 8c09 e03f 7c18 523e 63df 86be 0898 fcbd
00000080: 019a eb3d c454 103f d630 2bbe 944f 823e
00000090: 4ef2 ef3e 772f 933e d593 943e 7805 4cbf
000000a0: 04e4 75bf 8540 6cbf cbbc 0cbf f069 df3d
000000b0: 573f 753f 7016 4fbf f948 183f c5c7 663f
000000c0: aeb9 98bf f5cd d03e 8e12 5abe a321 103f
000000d0: 4a1d 7e3f f29e 363f cf03 c6be abc5 333e
000000e0: e0a9 92bd fef9 6d3f ccb4 5d3f e490 fe3e
000000f0: 80f0 8b3d bea0 78bf 7a8c 42be fc9f a63e
00000100: 7063 1f3e 73b3 013f 76b0 873f cc66 0abf
00000110: 8d21 153f fc46 4abe 88c4 95be 44b5 f43e
0.050482452 0.07599312 -0.48908278 -0.17302935 -0.5457049 0.49396122 0.20614392 0.38136205
-0.3159673 0.7379918 0.1217297 0.94754565 0.3851393 -0.008076079 -0.13569677 -0.57556427
-0.35067767 0.5255315 0.5469495 -0.013386488 -0.41610414 0.7627101 0.91836524 -0.04478085
1.3246496 -0.39746395 1.2210048 0.9735331 1.7502913 0.20517153 -0.26342306 -0.12333685
0.11503983 0.5637934 -0.16717848 0.25451338 0.4686455 0.2874715 0.29019037 -0.79695845
-0.9605105 -0.9228595 -0.54975575 0.10908878 0.95799774 -0.8089361 0.5948635 0.90148574
-1.1931665 0.40782133 -0.2129614 0.56301326 0.9926344 0.7133628 -0.3867478 0.17555873
-0.07161307 0.9295958 0.86604 0.49719918 0.06832981 -0.97120273 -0.189989 0.32543933
0.15565276 0.5066444 1.0600727 -0.54063106 0.5825432 -0.19753641 -0.29251504 0.47794545

model_1/activation_5/Relu;model_1/batch_normalization_6/FusedBatchNormV3;model_1/batch_normalization_7/FusedBatchNormV3;model_1/conv2d_6/Conv2D/ReadVariableOp;model_1/conv2d_6/Conv2D;model_1/conv2d_5/Conv2D/ReadVariableOp;model_1/conv2d_5/Conv2D f4 [96]
00000000: df2f cdbe e4f4 6ebe b382 853e fcdc f3bd
00000010: 3024 b03d 0cca 8fbe 6e26 b43e ccb0 af3e
00000020: 73bf 36c0 d8bd c1bd 027a a2bf 2749 d0bf
00000030: fd53 49bf 04d7 1a3e 80a0 23bb 3b8e 9abf
00000040: 0006 0abe 4b1b 89be 783d b2bd 1e5f 03bf
00000050: b0dc 65bd 86fe 11bf 7e6c 66c0 a765 dfbe
00000060: 02fd 1fbf 608c 473d 10f7 c03e f24c bcbe
00000070: 8085 a23d a496 39bf 2483 4bbe 4c57 55be
00000080: 3e98 83bf 5f27 40bf bc3e ed3e 2a03 b93e
00000090: 4805 17be 9071 44bf 929a 9cbf 0038 4e3c
000000a0: 5ed3 2dbe d431 4c3e f022 75bd 1007 a93d
000000b0: 576f 04be 20b1 43bd a9d8 be3e f6ad bf3e
000000c0: d0d9 5fbf 5ca4 1dbf 0a65 78bf 4a1e 043f
000000d0: e882 e83d 16ed ae3e 2a4b ba3e b7fa 8fbe
000000e0: 7d4c 7cbf fff2 5dbf 2880 65bf c0c4 cd3c
000000f0: 9814 99be bb6a aabf 5432 31bf 54a9 213e
00000100: 001c 7bbe 602e 23bf 64ce 68bf 9379 51be
00000110: 000a 693b 063c 0fc0 7c62 0f3f 9d69 a6bf
00000120: 2159 cdbf 38b9 ed3e 5e24 063f 6873 1fbf
00000130: ca7a 293e 1202 7fbf 9095 c23d 1ed8 1abf
00000140: b1fa 92bf ac1a 253f 9e43 683e 08f6 6bbe
00000150: d8d8 ac3e 1cdb 053f c720 5e3f 7849 013d
00000160: d8fe 01be e49c b5bd 9673 9dbe 73e8 10bf
00000170: 3a20 383e 1af0 56bf 928f 2cbe af6c f6bf
-0.40075585 -0.23335606 0.26076278 -0.11907384 0.08600652 -0.28083837 0.3518557 0.34314573
-2.8554351 -0.09460038 -1.2693484 -1.6272324 -0.7864378 0.15121084 -0.0024967492 -1.2074655
-0.13478851 -0.26778635 -0.087031305 -0.5131701 -0.056118667 -0.57028997 -3.6003718 -0.43632242
-0.62495434 0.048717856 0.37688494 -0.36777455 0.07935619 -0.72495484 -0.19874245 -0.20834082
-1.0280836 -0.75060076 0.46336925 0.36135226 -0.14748108 -0.7673578 -1.2234671 0.012586594
-0.16975161 0.19940883 -0.059847772 0.082533 -0.12933098 -0.04777634 0.37274674 0.3743741
-0.8744173 -0.6157892 -0.97029173 0.5160872 0.113530934 0.34165257 0.3638547 -0.28120968
-0.9855421 -0.8669891 -0.89648676 0.025118232 -0.29898524 -1.3313822 -0.6921742 0.1578725
-0.245224 -0.6374264 -0.9093993 -0.20456533 0.003555894 -2.2380385 0.5600965 -1.3000981
-1.6042825 0.46430373 0.5239924 -0.6228547 0.16550747 -0.99612534 0.09501183 -0.6048602
-1.1482755 0.64493823 0.22682044 -0.23043072 0.3375919 0.5228746 0.86768764 0.031564206
-0.12694871 -0.08867815 -0.30752248 -0.5660469 0.17981043 -0.83960116 -0.16851643 -1.9251918

model_1/activation_6/Relu;model_1/batch_normalization_7/FusedBatchNormV3;model_1/conv2d_6/Conv2D/ReadVariableOp;model_1/conv2d_6/Conv2D f4 [96]
00000000: 8080 f33e f62d 3dbf d4a7 163d 23ee 3c3f
00000010: 862a b93d 1e5c 303e 60be 723d 799a 1f3e
00000020: ae5c f43e 7699 7bbe d06b c73b fe1c bf3e
00000030: dbd8 353f 60b0 0f3d d292 d7bd 2389 48bf
00000040: e54b 813e fd08 9ebe a603 e13d a2c3 df3e
00000050: 007e 3cbd 0ea5 45bf 300e ce3e 00a7 c23d
00000060: e7be 8f3e afb3 b5be a025 6ebd 2b5d 923e
00000070: 3467 dd3d 9223 353e aa4f 5c3e 7a33 98bd
00000080: b073 85bc 58c4 22bf e896 d4bc f5fe 8d3e
00000090: 1d1f c9bc 969f d23d dfe5 79be 6b86 18be
000000a0: 2024 513c 5a1c 853e c09b d1bd 7815 f43d
000000b0: fe3a 953e b1d3 563e d21d 393e 0a37 df3e
000000c0: f541 0ebf 663f 0b3d 6160 ad3d e868 27bd
000000d0: fced 20bf fed3 103f 25a5 78be 928a 9f3e
000000e0: 98c0 99bd 4702 65bf 6e78 1f3f f0d1 2a3d
000000f0: ec8c c9bd 6899 8c3d 0f44 6a3f 7ea2 133e
00000100: 36a2 66bf 1873 78bd 306e 41bd 88f9 a2be
00000110: fb55 483e 5561 debe e81e 7b3d e82d 8b3e
00000120: 6877 e03c 574e 043f aac2 c4be b863 1d3d
00000130: 1eaf 183e 58db 46bf d851 7f3d de39 1f3d
00000140: 8f34 a63e 28b0 92bd 284c d43e 1081 c43c
00000150: b0bb f8bd 44ed 623e b405 c9be e45e f73d
00000160: 60e8 dbbc 290d d93d 94ae ee3d 703b 753f
00000170: 0782 2ebd 023f 17bd 6b31 46be 90eb 843e
0.47558975 -0.73898256 0.036781147 0.7380087 0.09041314 0.1722264 0.059263587 0.1558627
0.4772696 -0.2457026 0.0060858503 0.37326807 0.7103402 0.035080314 -0.105260506 -0.78334254
0.25253215 -0.30866233 0.10987024 0.43703943 -0.0460186 -0.7720498 0.402452 0.09504509
0.28075334 -0.3548865 -0.05814135 0.28586707 0.108107 0.1768935 0.21514764 -0.074316934
-0.016290516 -0.63580847 -0.025950864 0.2773358 -0.024550969 0.10284345 -0.24404095 -0.14895026
0.0127649605 0.25998193 -0.10234785 0.11918157 0.2914657 0.20979191 0.18077782 0.4359668
-0.5556939 0.03399601 0.084656484 -0.04087153 -0.62863135 0.56573474 -0.24281748 0.31160408
-0.075074375 -0.894566 0.62293136 0.04170412 -0.09841332 0.068651974 0.915101 0.14417455
-0.90091264 -0.060656637 -0.047224224 -0.31831002 0.19564049 -0.43433633 0.06130877 0.2718346
0.027400687 0.5168204 -0.38429767 0.038425177 0.14910552 -0.7767844 0.06233391 0.038873546
0.32461974 -0.071625054 0.41464353 0.023987323 -0.121451735 0.22160822 -0.39262164 0.12078646
-0.026844203 0.10598213 0.11654392 0.9579382 -0.042604472 -0.036925323 -0.19354789 0.2596097

model_1/activation_7/Relu;model_1/batch_normalization_8/FusedBatchNormV3;model_1/conv2d_7/Conv2D/ReadVariableOp;model_1/conv2d_7/Conv2D f4 [3]
00000000: 68dc 8cbd 8e67 783e 437a f93e
-0.06877977 0.24258253 0.4872609
